models/GTSRBNet.pth (torch, 227980 bytes, 8 tensors)

conv1.weight f4 [6, 3, 5, 5]
000000 ab 88 c9 be 7a 9a ab be 50 3d 1c be 26 fc c7 bd
       -0.39362082 -0.33516294 -0.15257764 -0.097648904
000010 22 06 07 bd e4 57 ba be 30 cc aa be 74 4d 0e be
       -0.032964833 -0.3639518 -0.33358908 -0.13896734
000020 cb a6 06 3e 78 d1 06 3e f5 7f e8 be 9d eb 14 be
       0.13149564 0.13165843 -0.45410123 -0.14543004
000030 ab b2 41 3e 79 1b 8b 3d cb 29 4c 3e 01 ce 53 be
       0.18915813 0.06792349 0.19937818 -0.20684053
000040 77 a3 e0 3c 5a 46 4b 3e d9 37 e7 3d 51 6a 2a 3e
       0.027421696 0.19851056 0.11289949 0.16642119
000050 ad 2a 05 be b5 2d 06 be 3f 01 55 3e 1f 71 29 3e
       -0.13004561 -0.13103373 0.20801257 0.16547059
000060 50 97 26 3e b6 08 72 be 9a 2d cd be 79 d8 21 be
       0.16268659 -0.23636135 -0.40073854 -0.15805234
000070 61 a9 c4 bd 7d 64 e5 3c 6d 70 dd be 4b d3 1b be
       -0.09602619 0.028002018 -0.43249837 -0.1521732
000080 63 ae 3f 3e 68 10 ec 3d 1a e0 55 3e 71 3e bb be
       0.18718867 0.11526567 0.20886269 -0.36571077
000090 a3 6e 83 ba 68 0c bd 3e a1 a9 ad 3e e0 fa de 3d
       -0.0010027479 0.36923528 0.3391848 0.10887694
0000a0 e4 c2 5f be 34 d4 79 3d 4a 4b 9b 3e ae 2a 98 3e
       -0.21851689 0.06099339 0.30330878 0.29720062
0000b0 c5 b9 34 3e 28 94 8d be 9a b8 39 bd 03 8b 52 3e
       0.1764899 -0.27652097 -0.045342065 0.20560841
0000c0 95 36 8f 3e f1 20 0c 3e 23 8a 6a be 60 b9 9c be
       0.2797133 0.13684441 -0.22904257 -0.3061018
0000d0 b9 c3 1a be e3 56 4b 3d 74 3a 23 bd 86 d8 ba be
       -0.15113725 0.04964341 -0.039850667 -0.3649332
0000e0 fc 4b 03 be 5f 2e 47 3e b1 06 b0 3d c3 8d 1d 3e
       -0.12821954 0.19451283 0.08595026 0.15386109
0000f0 49 6f a0 be 27 41 5b 3c 1f c0 c0 3e ff cb 82 3e
       -0.31334904 0.013382233 0.37646577 0.25546262
000100 21 4e 2a 3e b8 f6 fd bd 64 82 aa 3d 43 70 b5 3e
       0.16631366 -0.124005735 0.08325651 0.3543721
000110 38 b9 9d 3e 7e bd 0b 3e 74 d1 84 be fe b4 54 3d
       0.30805373 0.13646504 -0.2594105 0.05193042
000120 a9 65 97 3e 3e 12 77 3e e9 dc a1 3c 0d 3c 81 bd
       0.29569748 0.24128053 0.019758658 -0.06310282
000130 c2 4b 58 bd 3a c6 d1 3d fb c5 d4 bc 28 1b 12 bd
       -0.052806623 0.10242887 -0.02597331 -0.03567043
000140 3c 2a db bd c5 28 9b bd 84 57 6b bd a9 49 98 3d
       -0.10701415 -0.075761355 -0.05745651 0.074359246
000150 0f 78 c4 3c 8d ea 86 be ff a6 fa bd 6f 9b 80 3d
       0.02398303 -0.26350823 -0.12238883 0.062796466
000160 f8 4d 81 3c a7 9e 16 be 77 23 82 be 24 41 9c be
       0.015784249 -0.14708959 -0.25417683 -0.30518448
000170 dc d7 12 be 80 22 53 bc 6e 68 65 bd 9f 1b 71 be
       -0.14340156 -0.012886643 -0.056007795 -0.23545693
000180 99 e7 7c be 8e 07 7a be 3c 73 66 be fd b8 53 be
       -0.24697722 -0.24416944 -0.22504896 -0.20676036
000190 94 b6 f5 3b 60 aa 1f 3e a2 1c 68 3e 7f d9 a2 3d
       0.0074985716 0.15592337 0.22667173 0.0795164
0001a0 eb e7 ab 3c ca d3 65 3d 85 c8 a1 3d a6 b0 71 3e
       0.02098461 0.05611018 0.07899574 0.23602542
0001b0 cb d4 97 3d f3 71 4f ba 58 1d 96 bd 8e 62 2f 3e
       0.07413634 -0.0007913403 -0.073298156 0.1712744
0001c0 79 a5 47 3e 4d 61 2e 3e 1f 3d 9d 3d 80 38 ca bd
       0.19496717 0.17029305 0.076776735 -0.09874058
0001d0 c7 34 c9 3c 52 a3 bc 3d 85 78 3b 3e 59 ee 68 bd
       0.024561299 0.092108384 0.18307693 -0.05686793
0001e0 3d 46 c9 bb ea 34 81 be 42 46 2d be 33 cf 05 be
       -0.0061424063 -0.25235683 -0.16921332 -0.13067321
0001f0 25 4b f8 bd 9c 6c e5 bd 97 8f 1a 3e 47 56 97 3d
       -0.12123708 -0.11202356 0.15093838 0.07389503
000200 c2 94 cf 3c bc f6 e3 bd ed f0 5c bd f9 6a 46 3e
       0.025339488 -0.11131045 -0.053940702 0.19376744
000210 56 a8 87 3e 72 14 77 3d 8e 8a d4 3d ba 73 05 3e
       0.26495618 0.060322233 0.1037799 0.13032427
000220 b5 ba 52 3e 26 6c 0d 3e 32 f6 ef 3d 14 ce 4b 3e
       0.20579036 0.13810787 0.1171688 0.19902831
000230 da 84 9e 3d b1 53 ae 3c 7b 39 a3 ba 9b 31 43 3e
       0.07740183 0.021280142 -0.0012453044 0.19061892
000240 e2 5d b1 3d 79 0e d1 3d 71 12 b9 bd a3 dc 12 be
       0.08660485 0.102078386 -0.090367205 -0.14341979
000250 4b a6 b4 3b 0d ed 93 bd 06 61 72 be 13 43 9b be
       0.0055129877 -0.07222948 -0.23669824 -0.3032461
000260 1b bc a5 be 9e 06 c7 be 3e 69 0a bd 4a d1 70 be
       -0.32370076 -0.38872236 -0.033791773 -0.23517337
000270 64 7a 88 be 40 da c0 be f5 4c 74 be 93 b1 8f be
       -0.26655877 -0.37666512 -0.23857482 -0.28065166
000280 59 df f3 bd e0 9d 98 ba 1b b8 e7 3b c4 cf 2f be
       -0.119078346 -0.001164373 0.0070715076 -0.171691
000290 65 e5 7d be 98 4d 33 3e da 62 00 3e d2 0e a6 bd
       -0.24794538 0.17510068 0.12537709 -0.081082955
0002a0 08 a5 ac bd b2 66 9e ba 7b 03 48 3e c0 99 24 3e
       -0.08429915 -0.0012085049 0.19532578 0.16074276
0002b0 9d fc fa 3d 64 45 c4 bc d0 3c 95 bd 15 ec 28 be
       0.122552134 -0.02395887 -0.0728699 -0.16496308
0002c0 7e 96 8e be 7c e6 cb bd 90 13 5e be a7 d4 1b be
       -0.2784919 -0.09956071 -0.2168715 -0.15217839
0002d0 1a ab e5 3c 2c 1f 12 be 75 75 7b be 66 2a 81 be
       0.02803569 -0.14269704 -0.24556525 -0.2522766
0002e0 f9 ae 3b bc 53 6f e0 3d 60 37 3e bd ee 21 be 3d
       -0.011455291 0.109587334 -0.04643953 0.09283815
0002f0 2c ee cc 3d 16 c1 43 3d a7 04 3f 3e 18 aa ec 3d
       0.10006365 0.047791563 0.18654118 0.1155588
000300 f6 89 ed 3d d3 e9 cf 3d 96 eb 77 bd f4 fb 75 3d
       0.115985796 0.1015202 -0.060527407 0.060054734
000310 67 1a 55 3e 1d 62 1f 3e 1b ca b7 3c 92 26 0f 3d
       0.20810853 0.15564771 0.022435239 0.034948893
000320 09 57 ba 3d 70 3d a5 3d b9 a5 9e bd 6e bc 11 3c
       0.09098632 0.08068359 -0.07746453 0.008895023
000330 71 9b e4 3d ed 91 27 3e 7b 13 3e 3d 00 c7 cb 3d
       0.111624606 0.1636426 0.046405297 0.099500656
000340 c2 9f ae bd 32 45 7c 3d 44 c6 7b 3d a5 ef 75 3e
       -0.08526565 0.061589427 0.061468378 0.24017198
000350 76 06 84 3e 0d 48 8b 3d c3 4d 49 3e f5 2e 4e 3d
       0.2578618 0.06800852 0.1965857 0.05033775
000360 0a b9 00 3e 62 4e 93 3e a6 c5 89 3e 21 73 6f 3d
       0.12570587 0.2877074 0.26908606 0.058459405
000370 12 62 38 3d 1d 2c b9 3d da 64 20 3d 16 55 3d 3c
       0.045015402 0.09041617 0.03915868 0.011555931
000380 7b 78 24 3e 0c 51 cf 3d 27 2e f1 bd 90 16 18 3d
       0.16061585 0.1012288 -0.11776381 0.037130892
000390 de 3b 0b 3d 30 85 5b 3e cc 13 8c bd 02 de 55 be
       0.03399264 0.21437526 -0.068397135 -0.2088547
0003a0 0e 81 37 be ad e0 9c bd 06 21 1b be d5 35 9d bd
       -0.17920324 -0.07660041 -0.15149316 -0.07676283
0003b0 f3 9c f6 bc 4d a2 91 bd b9 37 19 bd 6f 24 26 be
       -0.030104136 -0.071110345 -0.037406657 -0.16224836
0003c0 7c 7e a9 3d 08 b9 22 3e 4d 3a ab 3d 68 1e 51 3c
       0.08276078 0.15890896 0.08360729 0.012763597
0003d0 56 0e 93 bd 46 4d 68 3e d8 b2 c6 3d 36 8a c4 3d
       -0.07180469 0.22685727 0.097020805 0.09596674
0003e0 af 4e 45 3d a4 48 46 3d f6 09 bc bc c7 90 8a be
       0.04817074 0.04840912 -0.022953968 -0.2706358
0003f0 ed 1b 37 be f1 5b 6e 3d 3b 46 dd 3c 92 58 08 be
       -0.17881747 0.05819315 0.027011028 -0.13315037

conv1.bias f4 [6]
000000 e3 2d c8 3e 2b 86 bf 3e 87 d5 9b 3e 72 8b 7d 3e
       0.3909751 0.3740705 0.30436346 0.24760225
000010 b6 ca bf 3d 86 60 e5 3e
       0.09364836 0.44800204

conv2.weight f4 [16, 6, 5, 5]
000000 fb 1a 00 bc 40 3f 9d bd 22 6b 54 bd 27 6a d1 bc
       -0.007818933 -0.076780796 -0.051859982 -0.025563313
000010 96 43 24 be 36 29 c9 bd 96 55 be bd 3b 6b 15 be
       -0.16041407 -0.098223135 -0.09293668 -0.14591686
000020 ab a0 58 3d c9 1c 6a bd ca 92 0a 3d a6 8a 21 bc
       0.0528876 -0.057156358 0.033831395 -0.0098597165
000030 74 89 5e 3d 69 87 1a 3e b3 e8 40 3d ca 2f 01 3b
       0.054330304 0.15090717 0.04709692 0.0019712322
000040 e3 e4 1b bd 67 20 06 3e 71 41 54 3e c2 a1 85 bd
       -0.03806008 0.13098298 0.20728089 -0.065249935
000050 93 17 c8 bc 20 38 3f 3d 6f 29 c6 3d b7 f5 51 bc
       -0.024425304 0.046684384 0.096758716 -0.012814931
000060 d6 1b 57 bd 58 f1 af 3d 3d 40 2d 3b 16 f2 10 3d
       -0.05251678 0.085909545 0.0026435994 0.03538712
000070 2e ef 8a bd 68 0c 90 bd 81 74 e1 3d 49 0c 0f 3d
       -0.06783901 -0.07033616 0.110085495 0.034923825
000080 0a 89 75 3d fb 7e 83 b9 8a 0e 09 bd 18 1c 0d 3e
       0.059945144 -0.00025080875 -0.03346113 0.13780248
000090 81 75 1f 3e ff af ba 3d a0 5f 53 3d 46 9d 63 bd
       0.15572168 0.091156 0.051604867 -0.05556991
0000a0 39 05 14 3c 63 7f 65 3d 3b 9e 21 3d ce 91 23 3d
       0.009034448 0.05602969 0.03945754 0.039933972
0000b0 7f 32 df 3d c8 3a 74 3d 7c ff 34 3e 70 6e 8d 3e
       0.10898303 0.05962637 0.17675585 0.2762332
0000c0 0e 8b 1f 3e 94 17 26 3e fd 02 42 3d 4a 23 39 3e
       0.15580389 0.16219932 0.04736613 0.18079868
0000d0 66 67 23 3e 92 dc b3 3d 84 62 5f 3e a5 08 e8 bd
       0.15957412 0.08782305 0.21814924 -0.11329774
0000e0 1e 3c c0 3d 89 fd a0 3c f7 8d 93 3c ab f2 4c 3e
       0.093864664 0.019652145 0.01801203 0.20014445
0000f0 fa 20 ec bd 17 80 8c 3c 7e 33 88 bd 84 d5 e0 3d
       -0.11529727 0.017150922 -0.06650446 0.10978225
000100 ed 28 30 3e b9 63 e5 3d 1f 5f 61 3d 3c 56 63 bd
       0.17203112 0.11200661 0.055022355 -0.05550216
000110 a6 77 33 bd 61 31 ed 3b c4 6c 3f 3e b0 45 9f 3d
       -0.043815278 0.0072385524 0.18693835 0.07776964
000120 f8 cc 6c bd 36 56 68 be b5 2a 23 be b4 07 f6 bd
       -0.05781266 -0.22689137 -0.1593426 -0.12013188
000130 e4 04 1d 3d c1 04 4f 3c 8b aa 74 3e 4f 64 a8 3e
       0.038334742 0.012635411 0.23893182 0.3288903
000140 99 e7 95 be a0 d4 44 be 78 4d 7a be 51 b4 3e 3d
       -0.29278257 -0.19221735 -0.24443614 0.046558682
000150 ca ee 82 3e 47 4f 9a be 14 20 d0 be 85 0b b6 be
       0.25572807 -0.3013861 -0.40649474 -0.35555664
000160 d5 52 93 bd b4 92 31 3e 18 9a 8d be 98 cb f9 be
       -0.07193533 0.17341119 -0.27656627 -0.48788142
000170 b5 cd 23 be 77 64 34 be 1a 3e 99 bc c1 87 39 3d
       -0.1599644 -0.1761645 -0.01870637 0.04529548
000180 66 8c 98 be 44 87 be be fb 16 b4 be 73 ca 92 be
       -0.29794616 -0.37212574 -0.35173783 -0.28670081
000190 57 b1 ab 3d 0c 11 d9 bc 7a 80 55 bd 11 b1 03 3e
       0.08383434 -0.026497386 -0.052124478 0.12860514
0001a0 cb 5e 8d 3e ce 4b e1 3d d9 15 f2 bd 86 10 ad bd
       0.27611384 0.11000787 -0.11820573 -0.08450417
0001b0 79 f6 a8 3d 37 de f4 3d 77 6d ed bd 0f f9 4b be
       0.08250136 0.119564466 -0.115931444 -0.19919227
0001c0 9b 8f c2 bd 9f 19 a8 bd fa 69 a6 bc fa 99 e9 bd
       -0.09500047 -0.08208012 -0.020314205 -0.11406322
0001d0 63 e0 11 be aa 47 a9 bd bb c4 e3 bd 6b 17 20 bd
       -0.14245753 -0.08265622 -0.11121508 -0.039084833
0001e0 cf 67 f2 3c 5e 8e 16 3c cc 45 2b be 67 d7 0e be
       0.029590515 0.009189216 -0.16725844 -0.13949357
0001f0 82 35 05 be d1 ac b8 bc af 21 14 be 9b 6a 08 3b
       -0.13008693 -0.022543343 -0.14465974 0.0020815495
000200 a6 d7 d1 bc 1b d3 cf bd 99 99 a7 bd d8 6f a5 3d
       -0.025615525 -0.10147687 -0.08183593 0.08077973
000210 33 e6 64 bb 9e 81 35 bd 76 9c 24 bd 42 a1 92 3a
       -0.0034927248 -0.044313066 -0.040188275 0.0011186975
000220 28 8a 99 3d 1b fc be bd 4b 3e 1f be 3c 58 38 3e
       0.07497054 -0.09325429 -0.15551107 0.18002409
000230 c6 6d d2 3d ee e5 db bc 78 e8 1a be 34 7f 1f 3d
       0.10274844 -0.026843037 -0.15127742 0.03893967
000240 19 5f 3f 3e 07 e1 8c bd bb ef 99 bc db 9a 7a 3d
       0.1868862 -0.06878858 -0.01879107 0.061182838
000250 bb 09 9d bc 2b 5f 2f 3e a6 f3 e6 bd 7e f2 49 bd
       -0.019169679 0.17126147 -0.11276941 -0.049303524
000260 97 89 59 3d ff b4 8f 3d 6c d9 ee bc a3 38 3d bc
       0.05310973 0.07016944 -0.02915641 -0.011549148
000270 7f 81 b0 3d 45 fa 41 3d 14 31 e5 3d 42 82 39 3d
       0.086184494 0.047357816 0.111910015 0.04529024
000280 07 18 7b bc 5b 25 0c bd 82 c2 2b be 78 dc 27 be
       -0.015325553 -0.034215312 -0.16773418 -0.16392696
000290 dc 9d 09 be 4d a3 3f bd 11 3a 06 be b6 b2 51 bd
       -0.13439125 -0.046786595 -0.13108088 -0.051195823
0002a0 b3 db 13 3d 66 f8 90 3d 49 46 76 bc 15 5e cf bc
       0.036098193 0.07078628 -0.015031406 -0.025313416
0002b0 9d f2 0f 3e 6f 50 7c 3d 85 52 4c 3d 24 ee 4c 3d
       0.14057393 0.061600145 0.049883384 0.050031796
0002c0 2a 8e 6d be ad cd 3e be 86 3f 0e be 34 d4 fc bd
       -0.23198763 -0.18633147 -0.1389142 -0.12345162
0002d0 6c 02 7e 3d d4 8e 56 bd b7 e1 ab bd 85 e4 b6 bc
       0.06201403 -0.052382305 -0.08392661 -0.022325763
0002e0 39 c4 82 bd aa b5 96 3d 6e c8 f6 3d 6c cf ce 3d
       -0.06385083 0.073588684 0.12049948 0.10098156
0002f0 8b 82 f6 3c fc a8 f6 bb e6 56 5b be f9 bd 35 be
       0.030091545 -0.0075274687 -0.21419868 -0.1774825
000300 2b e7 1b be 52 f7 02 be 5f 2b 82 bd ea 9b dc bd
       -0.15224902 -0.12789658 -0.06355929 -0.10771926
000310 ec 8b 45 be 8a 0e a7 bc bd b4 f6 3d 3d 36 64 3e
       -0.19291657 -0.020392675 0.12046192 0.22286315
000320 aa 5d 2e 3e 09 8a 2f 3e 6c f5 20 3e b2 9b 74 3e
       0.17027918 0.171425 0.15718621 0.23887518
000330 c3 68 a3 3e 85 dc 35 3e 13 30 92 3e 79 bd 5a 3e
       0.31915864 0.17759903 0.28552303 0.2136134
000340 a9 57 d1 3d f3 40 42 3e 00 16 25 be e2 e8 66 be
       0.10221798 0.18970089 -0.16121674 -0.22549775
000350 1a 6e a6 be 28 b5 c7 be a8 99 43 be 89 9d be bd
       -0.32505876 -0.390054 -0.19101584 -0.09307391
000360 53 e7 1e be d8 c1 88 bd 7e d7 67 3d de 82 4d 3d
       -0.1551793 -0.06677598 0.056601994 0.050173633
000370 49 6c e2 bd 22 96 e2 bc 05 3b 33 bd 34 a4 a6 bd
       -0.1105581 -0.02765948 -0.043757457 -0.08136788
000380 17 19 c2 bc e8 da c2 3d fe 72 ee bc 43 e3 95 3c
       -0.023693604 0.09514409 -0.029107567 0.018296843
000390 f9 9d a7 3c 7a 80 6c 3e 80 a8 83 3d 7d ac 38 3e
       0.02046107 0.23095885 0.06428623 0.18034549
0003a0 aa 1c fa 3d 90 11 9e 3d bb 9a 8e 3b e8 c7 43 bd
       0.122124985 0.077181935 0.0043519414 -0.047798067
0003b0 15 ec 25 be 99 c1 ba be 77 29 aa be 15 d5 94 be
       -0.1620334 -0.36475828 -0.3323476 -0.2906882
0003c0 8a 23 79 3e d9 69 2a 3d 6c 65 54 bd 6f e4 21 3d
       0.24329963 0.04160485 -0.051854536 0.039524492
0003d0 3f b6 24 3c 16 75 ad 3c 60 0c 7c bd c5 d9 69 3c
       0.0100532165 0.021173995 -0.06153524 0.014273112
0003e0 04 41 38 bd d2 d6 64 be 5d 42 cf 3c 3f d9 67 3d
       -0.04498388 -0.22347572 0.0253002 0.056603666
0003f0 61 45 5a 3d 10 b6 23 bd 0d b1 06 be 4e 81 4b 3e
       0.05328882 -0.03996855 -0.13153477 0.19873545

conv2.bias f4 [16]
000000 a4 3a 95 3e 15 73 17 bd 15 f3 af 3d 29 a6 23 3e
       0.29146302 -0.036974985 0.08591286 0.15981354
000010 0e 72 51 3e bc 1c 09 3d 2e 51 c3 3d 19 2d 15 3c
       0.20453665 0.03347467 0.09536968 0.00910499
000020 b1 a7 0e 3e 0b 30 a7 3d f4 66 12 3e c0 d1 8d 3e
       0.13931157 0.0816346 0.14297086 0.2769909
000030 9c 7e f6 3d 43 0f 05 3d c0 c5 53 3e e9 df 4b 3d
       0.120358676 0.032485258 0.20680904 0.049774084

fc1.weight f4 [120, 400]
000000 b2 13 22 3d 32 f7 a4 bc 97 5c a4 3d 0d 47 6a 3d
       0.039569564 -0.020137403 0.080254726 0.057196666
000010 3a 0d d1 3d 37 f8 8f bc e8 18 7c bd 71 e9 c2 bc
       0.10207601 -0.017574413 -0.06154719 -0.023792954
000020 5d cc 3e 3d 69 a7 68 3d 8e de bc bd b8 10 49 be
       0.046581615 0.05680028 -0.092221364 -0.19635284
000030 f5 e6 08 be b9 59 98 bc b0 bc 96 bb 50 86 8d 3d
       -0.13369353 -0.01859747 -0.00460013 0.06910384
000040 a2 55 01 3d 6a bf 28 bd be 2f c5 bd db b1 4e bc
       0.031575806 -0.04119817 -0.09628247 -0.012615646
000050 64 64 ad 3c 5f 1d 02 3e 71 2c c3 3d c0 08 32 3c
       0.021166034 0.12706517 0.09529961 0.010866344
000060 db 32 f8 3d ff 37 f0 bc 12 2d 90 3d b9 1a 1e 3d
       0.12119075 -0.029323576 0.070398465 0.038599703
000070 1c bf 17 bd cd 71 0b bd f3 81 bc bd 0b ab c0 3d
       -0.03704749 -0.034044076 -0.09204473 0.09407624
000080 b9 46 42 3e 63 d5 b0 3d 6d 6f 81 bd 56 c4 bb bd
       0.18972291 0.0863445 -0.06320081 -0.091683075
000090 1f c2 b3 3c 1b 65 85 3c 08 44 ba bd 35 9b 0d bd
       0.02194315 0.016283562 -0.09095007 -0.034571845
0000a0 49 c1 a0 bd 22 eb 89 be 0e fd 2c be 8a bd 83 bd
       -0.07849366 -0.26937205 -0.16893408 -0.06432636
0000b0 cc 0b 96 3d 08 8a cf 3c e6 f0 9f bd 4a 0a 7e bc
       0.07326469 0.025334373 -0.078096196 -0.015505383
0000c0 00 8b 92 bd 04 4b b9 3c c1 ee 17 3d d6 c2 46 3c
       -0.071554184 0.022618778 0.037092928 0.012131413
0000d0 1a 35 6c 3d cb 1a d4 3b 40 d2 74 3d 22 4c 69 3c
       0.05766783 0.0064729205 0.059770823 0.014239343
0000e0 a7 13 5e bd b1 1a 14 be 67 06 e9 bd 22 4f 2c 3c
       -0.05421796 -0.14463307 -0.11378174 0.010516914
0000f0 06 fb 2f 3d 16 6b c3 3d 4f 88 95 bc da ee 5b 3d
       0.042964004 0.095419094 -0.018253474 0.053694583
000100 23 b0 78 bc c9 bb a1 3c b5 ee cc bc c7 cd ab bd
       -0.015178713 0.019742863 -0.025016168 -0.08388858
000110 03 10 0a 3e 72 f9 5e 3c 8f 62 eb 3d 51 66 be 3c
       0.1348267 0.013609277 0.11493408 0.023242148
000120 a4 3b be bd b1 36 2a 3e 52 ce d0 3d ff 0c c1 3c
       -0.09288719 0.16622426 0.101956025 0.023565767
000130 01 83 26 3c 13 a6 32 bc 04 7b ba 3c 4b 9b 51 3b
       0.01016307 -0.010903853 0.022763737 0.003198343
000140 6d 0d 0d 3e 2b f8 f6 3d bf 1b ea 3d 32 43 cc bd
       0.13774653 0.12059053 0.114310734 -0.09973754
000150 2c 09 85 3c 9c 8e f5 bd 12 46 ca bd 5e 44 f8 bd
       0.016239725 -0.11990091 -0.09876646 -0.12122415
000160 af 14 6e bc 15 99 b1 bd fd 3a 27 be 3e 8f da bc
       -0.014531299 -0.08671776 -0.16331096 -0.026679631
000170 e7 93 71 3e c5 97 9a 3d 4a f6 a3 bd 5a ac 46 bc
       0.23591577 0.07548479 -0.0800596 -0.012126053
000180 d1 98 7a 3d 6f 03 2c bc 27 ac 9c ba ef 55 e5 ba
       0.061180893 -0.0104988655 -0.0011953161 -0.0017496924
000190 f1 5a 5b bd 04 9d d8 3c 68 b5 22 3d 90 b2 97 3d
       -0.053553525 0.026442058 0.039723784 0.07407105
0001a0 17 20 9d 3d d1 b7 93 3c da 47 ba 3d 42 ee c1 bd
       0.07672136 0.018031986 0.09095736 -0.09469272
0001b0 1e 75 33 3d 62 24 4f bb 7f 78 3b bd 30 ab 81 bd
       0.043812864 -0.003160738 -0.04576921 -0.063314795
0001c0 58 aa 58 be 43 04 88 3d 9c 0b 53 3c a7 b3 9f bc
       -0.21158731 0.06641438 0.012881186 -0.019494845
0001d0 2c 3c 55 3d 5c a2 88 be 1e 67 27 3e 94 7f 63 3d
       0.052059337 -0.2668637 0.1634793 0.05554159
0001e0 c3 d1 16 bb 4e 69 68 3e 03 ae b1 3d 44 0c 0a 3e
       -0.0023013211 0.2269642 0.08675768 0.13481241
0001f0 ba 27 10 bc 89 c8 31 3d 21 6a 88 bc 46 ce 33 be
       -0.008798534 0.043404136 -0.016652169 -0.17559156
000200 0b c0 84 bd f8 f4 55 3d 24 85 f1 3b e0 06 3b 3d
       -0.06481942 0.052235574 0.007370608 0.045660853
000210 a8 6f 93 bd 33 b6 46 bd 8c 55 d3 3c 01 c5 19 be
       -0.07199031 -0.048513602 0.025797628 -0.15016557
000220 77 7a 3e be 84 75 10 3e 93 f1 7b 3e 17 a0 ed 3c
       -0.18601404 0.14107329 0.24603872 0.029007
000230 34 4a 90 bc a6 1f 84 bc 2a 74 1e b9 b4 53 02 3e
       -0.017613508 -0.016128372 -0.00015111329 0.12727243
000240 57 9f 5b 3d 3d 6e 2d 3c 41 b8 19 bd 70 df 18 3e
       0.053618755 0.010585365 -0.037529234 0.14928985
000250 95 5b 75 3d f2 fe 18 bc 8b 6a 1c bd 39 f7 05 bd
       0.059901793 -0.009338127 -0.038187545 -0.032706473
000260 19 60 51 3d 34 7b 0f 3e 3f 25 0a bc 3a 85 ab bd
       0.051117036 0.14011842 -0.008431732 -0.0837502
000270 29 43 16 be ae 8c 4a be e5 c5 27 be 20 4b fc bc
       -0.14674057 -0.19780228 -0.16384085 -0.030797541
000280 fc f0 2b bd 9e d5 c3 bd b8 63 db bd 54 9d 60 3b
       -0.041977867 -0.095622286 -0.10712379 0.0034273462
000290 17 d3 4f bc 3e 3e 76 3d 26 db 34 be 75 a2 20 3e
       -0.012684605 0.060117953 -0.17661723 0.15686972
0002a0 6f 78 1c 3e a4 f8 fa 3c 47 d1 e6 bd d8 eb ba 3a
       0.15280317 0.03063614 -0.11270385 0.0014260961
0002b0 ab 32 09 3e 30 f2 a3 3b 90 af 74 bd 63 77 89 bc
       0.13398235 0.0050032362 -0.059737742 -0.01678056
0002c0 da dc d5 bc d5 19 0c bd a3 42 3c 3b 52 4c 63 3d
       -0.026106287 -0.034204323 0.0028726242 0.055492707
0002d0 36 75 ad bd 24 07 04 bd 9f 31 e0 3c fa 7c 8b 3d
       -0.08469622 -0.032233372 0.027367411 0.06810947
0002e0 92 9e 82 bc f6 98 62 3a 01 c7 96 3d dd 79 45 bd
       -0.015944753 0.0008644009 0.07362176 -0.04821192
0002f0 e8 cb 93 bd bd aa 26 3d 0d 4f 75 3d d0 57 40 be
       -0.072166264 0.040690172 0.05988984 -0.18783498
000300 0d ee 1d bc 95 7c d0 bd d6 63 bf bd 67 08 74 bd
       -0.009639275 -0.10180012 -0.09345214 -0.059578326
000310 b0 8c c4 bc c2 04 6e 3c 04 94 09 be 8f 1f 44 3d
       -0.023992866 0.014527502 -0.1343537 0.04788166
000320 1a 4a 4f 3d a3 a0 9f bc 37 2e a6 3c 12 56 4e 3c
       0.050607778 -0.019485777 0.020285709 0.012593763
000330 d2 1f 86 3d 59 77 60 bc 74 74 48 3d 3d a9 38 3b
       0.06549038 -0.01370033 0.048939183 0.0028177046
000340 71 15 ff bd 16 bf c6 bc 30 03 6c bc 90 26 9f 3c
       -0.124552615 -0.024261039 -0.014405057 0.019427568
000350 c1 ff 48 bd fe 9c 37 3d 2e 94 8f 3a 5c c3 27 3d
       -0.04907203 0.044827454 0.0010954195 0.040957794
000360 74 39 a5 3c 9b c3 29 3e 0b a7 1c 3d 19 64 3e 3d
       0.020168997 0.16578524 0.038245242 0.04648218
000370 04 41 c9 ba 6c 00 ff bb 5e 7e a6 bc 19 f3 30 3d
       -0.0015354459 -0.0077820327 -0.020323928 0.043200586
000380 f2 d3 cd 3c 71 55 f5 ba c1 61 0a 3d 1d 60 78 3c
       0.025125477 -0.001871748 0.03378463 0.015159634
000390 a3 e8 44 bb bd 6b 63 bd 3f 3e 72 bd 1d 01 a2 bd
       -0.003004589 -0.05552267 -0.059141394 -0.079103686
0003a0 95 7b c4 bd 86 bf d1 bd 61 e9 0c bd 91 87 02 bc
       -0.09593884 -0.10241608 -0.034402255 -0.007966892
0003b0 32 fe 6d be ce 8e 01 be 5e 6e ac bd df a5 fb bc
       -0.23241499 -0.12652132 -0.08419488 -0.030718742
0003c0 aa c9 3f bb ed b0 c9 bc 5e 13 96 3d f8 ff be bd
       -0.0029264488 -0.024620498 0.07327913 -0.09326166
0003d0 b4 de 26 3b 7a 06 a1 bc 48 b4 62 3d dd 7a bb bd
       0.0025462331 -0.019656409 0.05534771 -0.09154294
0003e0 a8 28 8b 3d 5b fd 18 bd 23 08 dc 3d df 94 a8 3b
       0.06794864 -0.037350994 0.107437395 0.0051447
0003f0 68 45 93 bd 75 e0 f2 3c c5 49 5a 3d b2 2b cc bc
       -0.071909726 0.029648045 0.05329301 -0.02492318

fc1.bias f4 [120]
000000 54 71 cd 3d 51 0f a8 ba e7 a9 06 3e bf f6 70 3c
       0.10031381 -0.0012821947 0.1315075 0.014707266
000010 19 02 62 3d 68 4e 27 bd b4 68 b1 3d 1b b6 ac 3d
       0.05517778 -0.04084626 0.08662549 0.08433171
000020 b2 48 2a 3c c9 3a 86 bb 32 4d 1b bd dd b3 6d bd
       0.0103933085 -0.004096363 -0.037915416 -0.05803286
000030 a6 b9 17 3d b6 48 21 bc 42 de a6 3d 21 fa ab bc
       0.037042283 -0.009843996 0.08147861 -0.020993294
000040 d2 2d 88 3d 51 78 2c 3e bd 72 ae 3c 79 1f 7b bd
       0.066493645 0.16842772 0.021294946 -0.06130931
000050 5c 66 65 bd e8 28 40 bd d6 f6 22 3e 6d 68 1a 3e
       -0.05600582 -0.04691401 0.15914473 0.15078898
000060 b7 52 63 bd 66 63 7b 3e 47 3b ee 3d bd 08 37 3e
       -0.055498805 0.24549636 0.116324 0.17874427
000070 60 bc 04 3e 9c c9 7c 3d 45 dd 29 bd 55 27 63 3c
       0.12962484 0.061715707 -0.041470785 0.013864358
000080 6b 42 f8 3d 31 9a d8 3c ea fb a2 3c d1 d0 1d 3d
       0.12122043 0.026440712 0.019895513 0.03852922
000090 48 28 2e 3d 27 1c 4d 3e 34 11 0c bd 29 9e 0e 3e
       0.042518884 0.2003027 -0.034196094 0.13927521
0000a0 60 ba 27 3d 14 a9 07 3d b9 62 c0 bc cc 5c 47 bd
       0.040949225 0.03312023 -0.023484575 -0.048672482
0000b0 3b 86 45 bc 26 d7 13 3e af 4c 54 3c 15 25 d6 3d
       -0.012055929 0.14437541 0.012957736 0.104562916
0000c0 91 d0 b8 3d 28 f8 3f 3e 14 5d 18 3e e9 93 80 3c
       0.09024156 0.18747008 0.14879256 0.015695529
0000d0 c1 1d d9 3d 55 0b 81 3d 40 b8 cd bb f2 17 42 3d
       0.10601378 0.063009895 -0.006278068 0.047386117
0000e0 d6 b1 3f bd 62 06 b9 3c 7a dd 46 3d 11 94 e1 3d
       -0.046800457 0.022586051 0.04855106 0.110145696
0000f0 cd ae 03 bd c8 44 39 3d 7b 8d 78 bd 53 92 8f bd
       -0.032149125 0.04523161 -0.0606818 -0.07010331
000100 84 c8 91 bd 9c 00 9a 3d ac d1 fe 3d 0b 16 59 3c
       -0.071183234 0.075196475 0.124423355 0.013249884
000110 f4 35 19 3e f6 3f e5 bc ce 8b fb 3d 65 4e 7a 3e
       0.14961988 -0.0279846 0.12282525 0.24443968
000120 da e4 a7 3e d2 c0 fb 3d cb 2b b2 3d 3d c1 2d bb
       0.32791787 0.12292637 0.08699759 -0.0026512884
000130 80 bc a8 3d 4c d4 5b 3d 21 72 c1 bb 3b 41 97 3d
       0.082390785 0.05366926 -0.005903498 0.073854886
000140 7e 93 c6 3d 16 8a 8f 3d 2d 09 fe 3d 27 b7 a7 bc
       0.09696101 0.0700876 0.12404094 -0.020473076
000150 e0 b9 16 3d 3b f3 8a 3c b2 a2 1e 3e 30 15 fb 3d
       0.036798358 0.016961684 0.15491751 0.122599006
000160 25 c3 13 3d d1 7b e7 3b 4f 85 f9 3d 6c 7a 52 3a
       0.036074776 0.0070643206 0.1218363 0.00080291065
000170 07 b9 ae 3c 1c 31 7f 3d f2 29 c4 3d 23 43 88 3d
       0.021328462 0.062302694 0.09578313 0.0665343
000180 57 36 c0 3d 2b a1 37 3e d5 4b 4f bd 70 b3 51 3e
       0.093853645 0.17932574 -0.05060943 0.20478606
000190 03 d4 2f 3d 96 4d 01 3d c1 f1 04 3e 2b c8 0a 3d
       0.0429268 0.031568132 0.12982847 0.0338823
0001a0 a2 d2 90 bc d7 a7 21 3c ad 4c a4 3c 7b 64 f7 bc
       -0.017678563 0.009866676 0.020056093 -0.03019928
0001b0 06 9a a5 3d 51 ee df 3d 2c 5f cf 3b 80 94 6f bd
       0.08086018 0.10934127 0.006328484 -0.05849123
0001c0 00 dc e0 3d f1 3e d4 3d 16 c9 62 3d 8a 9f 55 bc
       0.10979462 0.103635676 0.05536755 -0.013038525
0001d0 52 13 34 39 e0 a8 38 3d 3b 22 ce bd ab 67 04 3e
       0.00017173335 0.045082927 -0.10065123 0.12930171

fc2.weight f4 [43, 120]
000000 f6 c0 97 be 00 bc 46 3d 0a ea 3d 3d 08 f9 b1 be
       -0.29639405 0.048519135 0.046365775 -0.34760308
000010 23 b0 0e be 65 23 98 bd 8a 05 9c 3d e8 8c 3f be
       -0.13934378 -0.07428626 0.07618244 -0.18706095
000020 34 b4 9d bc 5c a9 02 be de 6d 86 3c aa 32 03 3d
       -0.019250967 -0.12759918 0.01640981 0.03203074
000030 99 76 d4 3d 0c 68 3d bd 91 66 8d bd 6c 5e 55 bd
       0.10374183 -0.046241805 -0.069043286 -0.052092
000040 56 cc 11 3e de 07 1a 3d 47 82 5f be cb 83 5a 3d
       0.14238104 0.03760516 -0.2182704 0.053348344
000050 71 b1 e5 bd 01 c5 86 3d 4f 9b 4c be 42 34 d4 3d
       -0.11215485 0.06580544 -0.1998112 0.1036153
000060 e5 52 91 bd 5d 36 85 be 7f 2c 9f be 30 d5 2a bd
       -0.07095889 -0.26018038 -0.31088635 -0.041707218
000070 e1 a8 3a bc a0 a4 b3 be 7c 01 74 3c 59 27 3d be
       -0.011392803 -0.35086536 0.014892932 -0.18472041
000080 c3 c1 d1 bd 02 5c 50 bd 26 c8 9b bd fe ed c0 ba
       -0.10242035 -0.050868995 -0.07606535 -0.0014719365
000090 2b d4 e3 3d ba ba cb bd 39 1d 33 bd db 23 0d 3c
       0.11124452 -0.09947725 -0.04372904 0.008614506
0000a0 c4 3b ea 3d 73 d3 c5 3a a6 e2 50 bd 49 9c 2a 3d
       0.11437181 0.0015092924 -0.0509974 0.04165295
0000b0 d3 2e 52 bc ed 08 de be 25 61 d1 3d e5 68 01 3e
       -0.012828547 -0.43366185 0.10223607 0.1263767
0000c0 e8 a4 3e be 02 ec ce 3c af 2b 0f 3e 20 4d 1c bd
       -0.18617594 0.025259022 0.13981508 -0.03815949
0000d0 02 75 9d 3d 40 dd 9e 3d 8c 35 6b bd 53 47 22 3e
       0.07688333 0.07757044 -0.057424113 0.1584752
0000e0 9e c5 a0 bd 7b 53 bd be c5 34 f5 bd b7 f5 6a be
       -0.078501925 -0.36977753 -0.119729556 -0.22945295
0000f0 1f 62 31 bd 1f f0 35 be 0d 90 d6 3c a8 89 e1 3d
       -0.043306466 -0.1776738 0.026191736 0.11012584
000100 13 31 84 bd 8f 69 e2 3d 61 f7 c6 b9 dd 67 57 3d
       -0.06454673 0.1105529 -0.00037949815 0.052589286
000110 3e 81 e4 bd d7 59 a1 be 0b 40 a9 be 2f 47 86 be
       -0.111574635 -0.31513855 -0.33056673 -0.26226184
000120 eb 9c 79 be bd 04 23 3e 31 45 f0 3d ee 9e 7c bd
       -0.24376266 0.15919776 0.11731947 -0.061675005
000130 ea 84 ce be 77 ce fa bd d6 28 e3 3d 55 36 4a be
       -0.4033578 -0.12246411 0.11091773 -0.19747289
000140 5d 71 c1 bd ca 4e 9b bc bf 43 00 3d f8 3a 43 ba
       -0.094454505 -0.018958468 0.031314608 -0.00074474467
000150 a7 e0 7f be 98 bb 9b bd dc 6b 6a be b6 4f 5a be
       -0.24988042 -0.0760414 -0.22892708 -0.2131947
000160 a4 90 9d bd 73 12 5f 3d 9a f6 1f 3e 56 2b 06 be
       -0.07693604 0.054460954 0.15621415 -0.13102469
000170 8c 87 ae 3d 4b f1 ad 3d 98 f9 a7 be 2b 5f 50 3c
       0.08521947 0.084932886 -0.32807612 0.012718002
000180 7d a3 84 bd 2b 79 8a 3c 58 25 e9 3d 27 91 bb 3d
       -0.064764954 0.01690348 0.11384076 0.09158545
000190 ef c9 b9 be 25 28 49 be ea ff 29 3d 76 cc 23 be
       -0.36286876 -0.1964422 0.041503824 -0.15995964
0001a0 9c 6c 50 bc 03 f2 34 3c b5 f3 37 be 67 09 15 be
       -0.012721207 0.011044028 -0.1796406 -0.14554368
0001b0 6d 2b 43 be b5 b5 e0 3d 07 81 c8 bd d6 e3 50 3d
       -0.19059534 0.10972158 -0.09790235 0.05099853
0001c0 d0 96 54 3d 11 35 f4 3d e1 a2 f0 3b 94 31 7a 3d
       0.05190164 0.11924184 0.0073436354 0.061082438
0001d0 65 f3 c6 bd e9 94 de bd e7 12 9d bd f4 0a c8 bc
       -0.097143926 -0.10868246 -0.07669621 -0.024419285
0001e0 2a 35 12 be 5b 9f 89 bc bf 69 e6 bb 6d 07 2e bc
       -0.14278093 -0.01679962 -0.007031649 -0.010621888
0001f0 f7 0f 2d 3d 61 63 7c bd e1 87 54 3d 7c b7 e8 bd
       0.042251553 -0.061618213 0.051887397 -0.11363122
000200 02 0e a1 3d c1 79 e3 3d 26 4d 67 3d aa a4 ad 3d
       0.07864 0.11107207 0.05647006 0.08478673
000210 1a f5 c9 3d 8f 95 8b 3d 31 12 67 3d a6 c9 a3 bd
       0.098612025 0.068156354 0.056413833 -0.07997446
000220 ae 61 ab 3d ec 29 c7 bd 1e 66 05 be c4 ff 6e bd
       0.0836824 -0.09724793 -0.13027236 -0.058349386
000230 b3 67 a9 bd d6 fd 86 3d 0d fd 48 bd f6 d7 de 3d
       -0.08271732 0.06591384 -0.049069453 0.10881035
000240 47 95 9f 3c d7 00 ba bc 34 c9 6c be be 7d 25 be
       0.01948036 -0.022705479 -0.23123628 -0.16161248
000250 4b d1 6b bd 5f cb 5f be 82 ea ac bd 3d ac f2 bb
       -0.057572644 -0.21854924 -0.08443166 -0.0074057863
000260 65 5e 33 bb ab cb 0b 3d af 2e b3 bd c8 e4 1e 3d
       -0.0027369496 0.03412978 -0.087491386 0.0387924
000270 62 87 ce 3d 72 59 03 be 6c c9 87 bd cb 14 b4 bc
       0.10084416 -0.1282709 -0.06630215 -0.021982571
000280 f7 9a 6f 3d 1e 47 77 bd 86 94 e7 bc b1 a7 9e 3d
       0.058497395 -0.060370557 -0.028269064 0.07746828
000290 71 06 31 bc fb f4 8b bd dc 99 8c 3d 65 cd e1 3d
       -0.010804758 -0.06833836 0.06865284 0.11025504
0002a0 77 bd b2 3d e2 37 83 bd ef 80 69 bd b3 f2 1b be
       0.08727544 -0.06407143 -0.057007726 -0.15229301
0002b0 7e 17 7a 3d df 60 6b 3d ba 0a 75 bd d1 0e ca 3d
       0.06105756 0.05746543 -0.059824683 0.09866107
0002c0 b1 03 a3 bd 8d 26 04 be ed eb cd 3d b9 13 a3 3c
       -0.079596885 -0.12905331 0.10054765 0.019906865
0002d0 82 77 46 3c 70 22 79 bd b0 a5 aa bc f4 14 f2 bd
       0.012113454 -0.060823858 -0.02083096 -0.11820403
0002e0 14 c1 13 3b df 5e b1 3d 94 7b 8a 3c 35 06 b3 3b
       0.0022545503 0.08660673 0.01690463 0.0054633864
0002f0 f4 27 6e be 6f c0 dc bb e2 92 00 be 75 46 96 3d
       -0.23257428 -0.006736807 -0.12556031 0.07337657
000300 ad 33 22 be 66 f6 57 3c c9 4a cd bd c0 76 4a bd
       -0.15840025 0.013181305 -0.1002403 -0.049429655
000310 95 c3 5f be 69 e2 90 bd 38 e7 be bd 8b cb 46 be
       -0.21851952 -0.07074434 -0.09321445 -0.19413583
000320 5b 2d a4 bd 97 12 c2 bd 8a 72 d6 3d 37 a5 9d bd
       -0.08016463 -0.09476202 0.10471065 -0.07697528
000330 0f d5 28 be 7a e6 27 be 38 80 7c bd fd 1e f0 bd
       -0.16487525 -0.16396514 -0.061645716 -0.117246605
000340 8a 40 5b be 7b 6e 19 3e 69 be f6 3d 56 b6 2f 3d
       -0.21411338 0.14983551 0.120480366 0.0428985
000350 76 46 4c bd 3f 07 91 3d d5 05 85 3d 4d 97 01 bd
       -0.049871884 0.0708146 0.06495253 -0.031638432
000360 df 84 98 3d 4c 58 67 bd 01 77 e7 bc 8a 77 1d bd
       0.07447218 -0.05648069 -0.028254988 -0.03844408
000370 ea cc e4 bd d8 e7 af bd 85 a3 38 3d e0 75 5b 3d
       -0.11171897 -0.085891426 0.04507782 0.05357921
000380 3e b4 96 3d 4e 96 a1 3c 61 8e 74 bd 06 99 65 be
       0.07358597 0.019724991 -0.059706096 -0.22421655
000390 cb 55 4c be 92 90 f4 3d f4 a0 0f 3d 1d 4a 98 3d
       -0.19954602 0.11941637 0.035065606 0.07436011
0003a0 e1 92 89 3d 6e 1a 07 3e ac 7a b9 3d 7d 80 66 3d
       0.06717468 0.13193676 0.09056601 0.05627488
0003b0 4b 0f e5 bd c5 38 2c be 27 a8 cb bd 33 ea aa bd
       -0.111845575 -0.16818531 -0.09944182 -0.08345451
0003c0 c5 bb 1f be 8b 89 c5 3b 90 cc 02 be fb 53 75 3d
       -0.15598972 0.0060283593 -0.12773347 0.059894543
0003d0 8a 11 2f 3d ba e2 ab bd f9 8b a4 3d 32 1b 26 be
       0.042741336 -0.08392854 0.0803451 -0.16221312
0003e0 b1 82 ef bd a1 00 0b 3d 78 63 a5 3d 5e 5a 4b 3d
       -0.11694849 0.033936147 0.08075613 0.049646728
0003f0 32 6f 5c bd 77 34 fa 3c d4 41 82 3d 60 e6 20 3d
       -0.05381698 0.030542595 0.06360212 0.039282203

fc2.bias f4 [43]
000000 5d a6 33 bd 4e 4f f2 3d c7 f3 72 bc a7 fb 60 3d
       -0.04385983 0.118315324 -0.014828629 0.054927494
000010 27 27 38 3d 1f e6 df bb 57 7b 05 bd 07 20 9c bd
       0.044959214 -0.0068328525 -0.03258833 -0.07623296
000020 53 97 db 3d d2 7f d7 3c 0e bd f4 bd f0 3e 76 bd
       0.10722222 0.026306067 -0.11950122 -0.060118616
000030 6d dd 16 3b 46 98 45 bd 41 59 6b bc 7b 37 50 3d
       0.0023020164 -0.048240922 -0.0143645415 0.05083416
000040 66 2d 09 be 18 ef 72 bd a9 d8 21 3e 2c c2 e6 3c
       -0.13396224 -0.05931005 0.15805306 0.02816876
000050 46 d2 ad 3c 88 ed 49 3d af 9a f6 bd 57 82 23 be
       0.02121843 0.049298793 -0.12041222 -0.1596769
000060 81 f4 16 3d 86 bc 75 bd f9 00 5d bd 46 36 8b bd
       0.03685427 -0.059994243 -0.053956006 -0.06797461
000070 4f 5c a2 bd ba 7c 10 bc 7c ae 03 3e da b9 94 3d
       -0.07927763 -0.0088188 0.1285953 0.07262011
000080 d4 53 95 3d c5 2e cd bc e7 d7 22 be a9 38 e0 bd
       0.072913796 -0.025046716 -0.15902673 -0.10948307
000090 62 eb d1 3d 86 65 4e be 90 3e bb 3c eb 90 05 be
       0.10249974 -0.20155916 0.02285698 -0.13043563
0000a0 62 f5 bb 3d a9 20 09 be 0d ba 17 bd
       0.091776624 -0.13391365 -0.037042666
