models/GTSRBNet_no_sampler.pth (torch, 228112 bytes, 8 tensors)

conv1.weight f4 [6, 3, 5, 5]
-0.16524681 -0.27815163 -0.32961744 0.079256475 -0.013714566 -0.11667646 -0.5144565 -0.4871155
-0.17249294 -0.017710418 -0.11579431 -0.28660053 -0.38719597 -0.11837782 -0.20880258 0.08975237
-0.14213765 -0.10431212 0.15392958 0.03882216 0.33824146 0.09571858 0.1318811 0.14119902
0.18156685 -0.051184308 -0.12693188 -0.16529877 0.16495928 -0.00038698016 -0.05541529 -0.39549488
-0.44841012 -0.07867927 -0.06175252 0.028364697 -0.22359547 -0.24962506 -0.10586312 -0.07685624
0.11328698 0.07425907 0.15158872 0.23498562 -0.062187675 0.29043356 0.12576295 0.10188432
0.35355476 0.12726949 0.13888982 0.027602404 0.1274114 0.26878577 0.13153276 -0.10965457
-0.0830042 -0.11482567 0.117792636 -0.036311403 0.113172814 0.127114 -0.05291789 0.09684515
0.012879477 0.2855863 0.20629904 0.13726647 0.22967707 0.079865314 0.1935409 0.039409
0.09649543 0.17297882 0.10213924 0.016117588 0.12350089 0.010699046 0.038843032 0.06823598
-0.042041324 -0.030451188 0.10047553 -0.09179221 0.17041676 0.06507557 0.015981171 0.10488355
0.015674662 0.15280853 0.059915222 -0.050709825 0.08468671 -0.115546085 0.032023728 -0.07257635
0.033036236 -0.0077644745 0.007076086 0.010474172 0.022855375 -0.0059902477 -0.05322611 -0.19542302
-0.051698565 0.02892508 -0.11336938 -0.20492518 -0.23433045 -0.037659016 -0.10738314 -0.15511417
-0.036208898 -0.32144177 0.04075351 0.060810447 -0.12436483 0.015748115 -0.14032689 -0.12720594
0.07035869 0.054554023 0.046790678 -0.13994908 0.0125756655 0.059942655 -0.0013973167 -0.05205385
-0.123963974 0.07534053 0.03132479 0.022204084 0.009568287 -0.32643142 -0.009636637 -0.07837272
0.022352267 0.058414314 -0.22116894 0.00032399478 -0.087991424 -0.07001174 -0.01036416 -0.13225766
0.10754544 0.011843184 0.13395225 0.05105034 -0.038154665 0.11838185 0.13185352 0.027955312
0.00132351 0.02539258 0.12268715 0.14936428 0.25580683 -0.04654542 -0.2289171 -0.003337551
0.27731383 0.3403285 -0.024229322 -0.40944988 -0.07221128 0.26634368 0.24826053 0.014996196
-0.3081409 -0.042409267 0.14114678 0.10953869 -0.10567755 -0.25000057 0.017881494 0.025375335
0.16554148 0.040868264 -0.11760287 -0.036709346 0.15075319 0.1768317 -0.09395252 -0.4265903
-0.10061035 0.37471437 0.3554577 -0.16158499 -0.5672011 -0.06944503 0.40597254 0.22023897
-0.21508262 -0.47534618 -0.07637358 0.15846708 0.2564721 -0.16969118 -0.3250555 0.052067365
0.02926471 0.1025461 0.09374163 -0.12252382 -0.014083988 0.13984308 0.31943762 -0.06559463
-0.30729327 0.037474412 0.23847854 0.3325326 -0.14759912 -0.43704835 -0.16711798 0.13023104
0.12355281 -0.21670453 -0.38551706 -0.15193063 0.14041686 0.18649632 -0.18315758 -0.16019769
0.02958892 0.05437537 0.08517028 0.20018865 -0.1355868 -0.5024292 0.09302437 0.17164494
0.12293287 0.05018529 -0.27304086 -0.056999758 0.3053833 0.2670229 0.18895257 -0.04465191
-0.07271876 -0.22831902 0.037786912 0.038724042 -0.24849981 -0.05519792 -0.44866055 -0.5250664
-0.45718756 -0.2572722 0.04712658 0.2887468 0.26925814 0.16397583 -0.3285101 0.25183964
00000000: 7636 29be e469 8ebe 9ec3 a8be 3851 a23d
00000010: 0fb3 60bc 11f4 eebd 6cb3 03bf 3467 f9be
00000020: fda1 30be 7015 91bc 9125 edbd 4ebd 92be
00000030: 8d3e c6be 1270 f2bd 58d0 55be 17d0 b73d
00000040: 888c 11be 98a1 d5bd b79f 1d3e fc03 1f3d
00000050: fc2d ad3e 1a08 c43d d70b 073e 7a96 103e
00000060: a9ec 393e a3a6 51bd 6efa 01be 1544 29be
00000070: 16eb 283e 99e3 cab9 25fb 62bd 4e7e cabe
00000080: 0396 e5be 9922 a1bd 36f0 7cbd 155d e83c
00000090: 36f6 64be b69d 7fbe c3ce d8bd ce66 9dbd
000000a0: 0103 e83d 2415 983d 133a 1b3e 12a0 703e
000000b0: 81b8 7ebd b5b3 943e 01c8 003e baa8 d03d
000000c0: 2105 b53e ef52 023e 2239 0e3e 701e e23c
000000d0: 2278 023e 4a9e 893e 86b0 063e 9392 e0bd
000000e0: 1bfe a9bd b929 ebbd 443d f13d 44bb 14bd
000000f0: 26c7 e73d 2c2a 023e 6ec0 58bd c056 c63d
00000100: 7104 533c 5e38 923e 0e40 533e 958f 0c3e
00000110: 7730 6b3e 6d90 a33d 962f 463e 556b 213d
00000120: 659f c53d 5c21 313e 612e d13d 0809 843c
00000130: 09ee fc3d 0d4b 2f3c df19 1f3d 4ebf 8b3d
00000140: 8633 2cbd c574 f9bc 1dc6 cd3d 8efd bbbd
00000150: bb81 2e3e 5746 853d f2ea 823c 30cd d63d
00000160: 2668 803c d779 1c3e aa69 753d 1bb5 4fbd
00000170: 3a70 ad3d 6da3 ecbd 502b 033d e9a2 94bd
00000180: 0151 073d 226d febb 83de e73b dd9b 2b3c
00000190: 323b bb3c d749 c4bb 9f03 5abd f91c 48be
000001a0: e0c1 53bd 4af4 ec3c 352e e8bd e8d7 51be
000001b0: 52f4 6fbe 5740 1abd b1eb dbbd 40d6 1ebe
000001c0: c84f 14bd 0494 a4be 27ed 263d 6014 793d
000001d0: fdb2 febd 3102 813c dab1 0fbe 4642 02be
000001e0: 3818 903d 0a74 5f3d 95a7 3f3d d04e 0fbe
000001f0: 2a0a 4e3c 6e86 753d 2b26 b7ba 6b36 55bd
00000200: d3e0 fdbd 234c 9a3d 6c4e 003d 57e5 b53c
00000210: 4ec4 1c3c 0522 a7be fce2 1dbc e081 a0bd
00000220: 1a1c b73c d943 6f3d 1c7a 62be d8dd a939
00000230: d934 b4bd 5162 8fbd 70ce 29bc 8d6e 07be
00000240: c940 dc3d ea09 423c c72a 093e 291a 513d
00000250: 1148 1cbd 2f72 f23d 9c04 073e 8a02 e53c
00000260: a079 ad3a 1a04 d03c 6743 fb3d f3f2 183e
00000270: 1df9 823e 69a6 3ebd 3f69 6abe d0ba 5abb
00000280: 14fc 8d3e 8a3f ae3e 927c c6bc 6aa3 d1be
00000290: 82e3 93bd 335e 883e 0238 7e3e 9bb2 753c
000002a0: a5c4 9dbe 57b5 2dbd c888 103e d255 e03d
000002b0: 796d d8bd 1300 80be 367c 923c efdf cf3c
000002c0: b583 293e 7b65 273d c6d9 f0bd 8a5c 16bd
000002d0: 0b5f 1a3e 5f13 353e 2e6a c0bd 0b6a dabe
000002e0: cd0c cebd 90da bf3e 8dfe b53e 8976 25be
000002f0: 1734 11bf 3239 8ebd a2db cf3e 5386 613e
00000300: 9e3e 5cbe 9360 f3be c069 9cbd 3245 223e
00000310: 5050 833e 86c3 2dbe ad6d a6be 9744 553d
00000320: 8cbc ef3c b103 d23d 9dfb bf3d c5ed fabd
00000330: 87c0 66bc 0633 0f3e 548d a33e 7a56 86bd
00000340: 8b55 9dbe c57e 193d b833 743e b741 aa3e
00000350: 3924 17be cdc4 dfbe fa20 2bbe 495b 053e
00000360: 4109 fd3d cbe7 5dbe 7e62 c5be b493 1bbe
00000370: 70c9 0f3e e4f8 3e3e a98d 3bbe dd0a 24be
00000380: 7664 f23c b5b8 5e3d c16d ae3d 41fe 4c3e
00000390: 44d7 0abe 339f 00bf 9083 be3d b1c3 2f3e
000003a0: 3bc4 fb3d 178f 4d3d 03cc 8bbe 9478 69bd
000003b0: 335b 9c3e 3ab7 883e c87c 413e ece4 36bd
000003c0: 93ed 94bd 76cc 69be 73c6 1a3d 1a9d 1e3d
000003d0: bc76 7ebe 3717 62bd d6b6 e5be c06a 06bf
000003e0: 7d14 eabe 2fb9 83be cd07 413d 9fd6 933e
000003f0: 34dc 893e 48e9 273e 7a32 a8be 20f1 803e

conv1.bias f4 [6]
0.068348594 0.18697615 0.010127174 0.02297482 0.19543576 0.16793662
00000000: 59fa 8b3d ad76 3f3e 72ec 253c b135 bc3c
00000010: 5020 483e 94f7 2b3e

conv2.weight f4 [16, 6, 5, 5]
0.05061342 0.025094604 -0.00341381 -0.11119513 0.045499492 0.15559152 0.120398015 0.039632384
0.016146682 0.14826158 -0.08691059 -0.39484358 -0.61457944 -0.57414 -0.35674006 0.06225019
0.061544586 0.12013904 0.12974098 -0.37433547 -0.10135062 -0.116953224 -0.06261565 -0.071657956
0.008622461 0.101742536 0.12387963 0.007008942 -0.035292685 0.014203513 0.12625444 0.05668871
-0.13270281 -0.043456342 -0.0621483 0.16124108 0.10176542 0.14811973 -0.06519622 -0.14108813
0.13026533 0.25303802 0.20162438 0.054081444 0.007911192 0.040155064 0.17644002 0.19499815
0.21393016 0.02808334 0.16737328 0.05337255 -0.20251952 0.15810485 0.10918676 0.025852818
0.11193967 -0.08005454 -0.2358989 -0.061434582 -0.13671425 0.11155153 0.2497192 -0.78256154
-0.20133218 -0.15489382 0.023835473 0.06810171 -0.29427418 -0.2485338 0.13207024 0.1480475
-0.18152642 -0.1811266 -0.24264704 0.114179626 0.07814397 0.025133222 -0.17680873 -0.22211193
-0.15004925 0.058464028 0.08638451 0.11921214 -0.19122817 -0.22499806 0.24025942 0.29426894
0.24681889 0.1639244 -0.36034414 -0.14671269 -0.24385308 -0.13196944 0.1880299 0.17194009
-0.06842576 -0.0610795 -0.29344255 -0.09564626 0.029954303 0.014863071 -0.21530156 -0.046281494
0.21861263 0.21232046 0.032056455 -0.12758411 -0.24973375 -0.14100474 0.19018999 0.0019067219
0.15280414 -0.19492428 -0.43306476 0.008919698 0.09346738 0.20158729 0.15045227 -0.3392364
-0.05242728 -0.045492683 0.036177713 -0.010913017 -0.2502678 0.04793325 -0.026682261 -0.1252621
-0.012579445 0.14880294 -0.20329556 -0.14829053 0.009002411 0.027842877 -0.17587116 0.017339256
0.15705118 0.116038844 0.19881131 0.03296722 -0.37573883 -0.1773207 -0.093757436 0.0862965
0.14662804 -0.008450324 -0.11402199 -0.14363737 -0.42714036 -0.0933166 -0.03801869 -0.16299592
-0.32596737 -0.05697121 0.1682773 0.064988196 -0.08809691 -0.20311314 -0.24120283 -0.15767345
0.13673083 -0.11053783 -0.1394213 -0.3359251 -0.15147418 0.10396055 -0.029667852 0.03004824
-0.019083327 -0.2584978 0.20158742 0.069000915 0.16339387 0.16119966 0.08557475 0.11899167
-0.011489608 0.06770191 0.073639795 0.025873622 0.05905468 0.048902884 0.059349243 -0.056727514
-0.011130054 -0.0032076354 -0.0549535 0.12894279 -0.02322647 0.13212234 -0.13370873 -0.07246392
0.0039938916 0.120614685 0.059467535 -0.14692739 -0.03889206 0.14616054 0.13696487 0.028282896
0.11800194 0.1104709 -0.105074584 0.07253248 0.01668915 -0.024272822 0.17134608 0.04797037
-0.15625925 0.15313551 -0.2017909 0.08939611 0.26338956 -0.13988605 0.033427004 -0.20865043
-0.08933554 0.21281701 -0.1812828 -0.13263595 0.08942465 -0.24117051 -0.14004654 0.049004734
-0.10584121 -0.09433263 -0.15088096 0.06845184 -0.038943578 -0.19510598 0.059637252 -0.27259573
-0.23182422 0.074985586 0.07919484 -0.08301886 -0.01889411 -0.437516 0.15226604 0.029719416
-0.17065312 -0.024693059 -0.07525057 -0.1482955 0.23169117 0.0014610983 0.23805456 0.19351108
-0.10983969 -0.040080857 0.335735 0.25733152 0.079013556 0.05394023 0.01148871 0.08009383
00000000: 0450 4f3d 3393 cd3c 3aba 5fbb 46ba e3bd
00000010: ad5d 3a3d 6253 1f3e 3c93 f63d 9155 223d
00000020: 0c46 843c e2d1 173e 2efe b1bd f028 cabe
00000030: 1455 1dbf d7fa 12bf a2a6 b6be 0efa 7e3d
00000040: 2d16 7c3d 750b f63d d2da 043e e6a8 bfbe
00000050: ea90 cfbd 2c85 efbd a23c 80bd 68c1 92bd
00000060: 3945 0d3c 645e d03d 9ab4 fd3d 44ab e53b
00000070: 108f 10bd dab5 683c d848 013e 6c32 683d
00000080: 3fe3 07be 47ff 31bd 378f 7ebd 621c 253e
00000090: 636a d03d b3ac 173e 9985 85bd 6879 10be
000000a0: 4664 053e 338e 813e 9f76 4e3e 8184 5d3d
000000b0: f29d 013c a379 243d b1ac 343e 98ad 473e
000000c0: 8210 5b3e 080f e63c e763 2b3e 2d9d 5a3d
000000d0: 4761 4fbe 3de6 213e 4f9d df3d 4ac9 d33c
000000e0: a040 e53d a2f3 a3bd 7b8f 71be d4a2 7bbd
000000f0: d2fe 0bbe 2175 e43d 64b6 7f3e f455 48bf
00000100: 062a 4ebe 7c9c 1ebe 9c42 c33c e978 8b3d
00000110: 1bab 96be a57f 7ebe 6c3d 073e c499 173e
00000120: 10e2 39be 4079 39be 7778 78be 02d7 e93d
00000130: f209 a03d 30e4 cd3c 590d 35be 4f71 63be
00000140: 83a6 19be fa77 6f3d 5dea b03d 7f25 f43d
00000150: 51d1 43be e465 66be 9106 763e 6baa 963e
00000160: 17be 7c3e ccdb 273e 077f b8be da3b 16be
00000170: 9fb4 79be ff22 07be e98a 403e 1011 303e
00000180: ce22 8cbd 7f2e 7abd 1a3e 96be 30e2 c3bd
00000190: ba62 f53c 3d84 733c 0378 5cbe aa91 3dbd
000001a0: fddb 5f3e 896a 593e a14d 033d 69a5 02be
000001b0: 34ba 7fbe 8c63 10be 2ac1 423e f8ea f93a
000001c0: b078 1c3e 3b9a 47be aaba ddbe ed23 123c
000001d0: d36b bf3d e66c 4e3e 2910 1a3e 65b0 adbe
000001e0: fdbd 56bd 8956 3abd 152f 143d 83cc 32bc
000001f0: 1a23 80be a855 443d c294 dabc b544 00be
00000200: 041a 4ebc cc5f 183e b62c 50be 79d9 17be
00000210: d97e 133c bf16 e43c 9217 34be 0e0b 8e3c
00000220: 06d2 203e c6a5 ed3d 3195 4b3e a308 073d
00000230: d760 c0be 8f93 35be e603 c0bd 38bc b03d
00000240: a925 163e 3a73 0abc 5c84 e9bd ad15 13be
00000250: 24b2 dabe c61c bfbd 7cb9 1bbd 67e8 26be
00000260: 32e5 a6be a55a 69bd e250 2c3e 8818 853d
00000270: 276c b4bd e4fc 4fbe e0fd 76be 2675 21be
00000280: 2b03 0c3e a861 e2bd 75c4 0ebe 60fe abbe
00000290: 0c1c 1bbe 45e9 d43d ff09 f3bc ba27 f63c
000002a0: a354 9cbc d359 84be ef6c 4e3e 5a50 8d3d
000002b0: b950 273e 8611 253e d141 af3d e8b1 f33d
000002c0: e93e 3cbc 4da7 8a3d 76d0 963d ebf4 d33c
000002d0: 52e3 713d 644e 483d 3118 733d 1c5b 68bd
000002e0: d45a 36bc 3137 52bb ec16 61bd 9409 043e
000002f0: 7045 bebc 144b 073e f1ea 08be f767 94bd
00000300: 31df 823b d504 f73d 3b94 733d 2274 16be
00000310: 484d 1fbd 1cab 153e 8540 0c3e 88b1 e73c
00000320: 00ab f13d 913e e23d 5831 d7bd e98b 943d
00000330: afb7 883c ccd7 c6bc 5975 2f3e 947c 443d
00000340: 6d02 20be 8ecf 1c3e 46a2 4ebe 4f15 b73d
00000350: ffda 863e 4a3e 0fbe c1ea 083d 75a8 55be
00000360: 8df5 b6bd b4ec 593e 33a2 39be b8d1 07be
00000370: 4524 b73d 67f5 76be 5c68 0fbe 30b9 483d
00000380: 47c3 d8bd 7731 c1bd 8a80 1abe 7a30 8c3d
00000390: 4d83 1fbd ddc9 47be 3146 743d ab91 8bbe
000003a0: 5463 6dbe 0b92 993d e730 a23d cb05 aabd
000003b0: d2c7 9abc 1902 e0be a1eb 1b3e 2276 f33c
000003c0: b1bf 2ebe 1949 cabc f91c 9abd c7da 17be
000003d0: 7340 6d3e 5382 bf3a 93c4 733e c527 463e
000003e0: a2f3 e0bd d32b 24bd 75e5 ab3e f5c0 833e
000003f0: dcd1 a13d 6ef0 5c3d 243b 3c3c 3c08 a43d

conv2.bias f4 [16]
0.1924686 0.16888936 0.23170659 0.2623079 -0.009649875 0.43933752 0.17404136 0.41674095
-0.12469086 0.33317047 0.12478158 0.11146265 0.18334505 -0.08253828 0.42624336 0.15660408
00000000: 7d16 453e 55f1 2c3e 7e44 6d3e 394d 863e
00000010: 821a 1ebc d9f0 e03e e637 323e 125f d53e
00000020: ec5d ffbd 5295 aa3e 7c8d ff3d 8846 e43d
00000030: cebe 3b3e d409 a9bd 923c da3e d25c 203e

fc1.weight f4 [120, 400]
0.032943897 0.05776813 0.04091245 -0.02419474 0.038373277 0.005011792 -0.00032404633 -0.021420464
-0.022149123 -0.025002679 -0.010988895 0.029435547 -0.03771528 -0.047679536 0.005498112 0.027990911
0.016100448 -0.021641133 0.03403377 -0.05625791 0.021646509 -0.02947113 0.050865106 -0.079813376
0.034573447 1.7244543e-05 -0.021305189 -0.010551265 -0.0020862152 0.024236608 -0.022473998 -0.02006115
-0.06336742 0.0060512745 -0.006552313 0.022732444 -0.01795734 -0.037843212 0.0088839 -0.01137124
-0.0065850103 -0.05582367 0.022944756 0.015985612 0.010745442 -0.07370377 -0.02832561 -0.013016711
0.010144328 0.006533237 -0.05991364 0.0018185946 -0.043740947 0.03763065 0.01565499 0.009190501
-0.038494866 -0.04415169 0.013683049 -0.061779894 -0.0018831221 -0.047025908 -0.036279604 -0.043514516
-0.018693943 -0.0048848884 -0.030791586 -0.020966368 0.01752573 -0.06816282 -0.04631199 -0.05218885
0.00064499775 -0.060232848 0.015070098 -0.041761193 -0.07198637 -0.0021824015 0.019769585 -0.0021479314
-0.0027462158 -0.06109852 -0.034985382 -0.01680966 0.03157648 -0.016644172 -0.03175769 -0.042670194
-0.011549723 0.028513808 -0.02547258 0.016025051 -0.033136856 0.010818634 -0.042800426 0.011867343
-0.04350086 -0.05642353 -0.04938069 0.037715077 0.005578774 0.02631396 -0.033449516 0.002873583
0.02686884 0.027344251 -0.05786263 0.024912909 -0.057047065 -0.05878948 0.00795794 0.0006022442
-0.023047412 0.02046106 -0.026313696 -0.045324203 -0.04198885 -0.01175609 -0.038476635 -0.05873702
-0.042213317 0.026373018 -0.03153493 -0.020211585 0.0359426 -0.048504885 -0.05073385 0.019145174
-0.025298148 -0.035531044 -0.008625961 -0.037928518 -0.056261778 -0.052429207 -0.011209354 -0.03677079
-0.05507949 0.030269643 0.050591134 -0.036573347 -0.027951472 -0.031255487 -0.00951598 -0.0019750686
-0.034927562 0.04859782 -0.014122313 0.027395075 -0.028340386 -0.048263926 0.00048191493 -0.017870538
0.024290824 0.02204065 -0.017156113 0.02863986 -0.019594958 -0.06178977 -0.057464674 -0.034874775
-0.027506657 -0.0237482 -0.03282957 0.014731849 0.032846402 -0.007819109 0.0050289426 0.0120955035
-0.03527055 0.0067712353 -0.018152922 0.025882749 0.028889762 -0.0246675 -0.028016346 0.022538736
-0.057130713 -0.048596717 0.017946107 0.034827657 0.03637909 0.04093424 -0.0158407 -0.011943881
-0.004297215 -0.05592526 -0.025449174 0.03178377 -0.051457353 0.024981465 -0.013842276 -0.040546354
0.03761258 -0.007911067 0.02658822 -0.048144124 -0.05421342 -0.05284077 0.011277378 0.01916792
0.011172701 -0.022160789 -0.0151004335 0.0017057528 -0.007481965 -0.013004253 0.033857394 0.017870363
-0.014934375 -0.024390122 0.021407403 0.00028145153 -0.064119175 0.028857041 -0.036066663 -0.06054205
-0.040763337 -0.06457387 -0.02459973 -0.031735852 -0.01806959 -0.044108238 -0.0093821585 -0.046462685
0.018952603 -0.0451834 -0.021962978 -0.005652557 -0.04308729 -0.05617258 -0.024655256 -0.02783004
0.022450672 -0.027330086 -0.0046623894 -0.008275866 -0.011451723 0.021881735 -0.029887825 0.02276998
-0.04641206 0.024367323 -0.04751198 0.025000613 -0.01328989 0.0022207452 0.017902644 -0.06159471
-0.020191867 0.0061826645 -0.045766618 -0.0064003104 -0.039468 0.016655812 -0.024674121 0.036711115
00000000: 2ef0 063d 469e 6c3d d093 273d 0c34 c6bc
00000010: 4c2d 1d3d f539 a43b c3e4 a9b9 f879 afbc
00000020: 1472 b5bc 6bd2 ccbc c40a 34bc d122 f13c
00000030: 567b 1abd 9e4b 43bd 8229 b43b 324d e53c
00000040: 16e5 833c bf48 b1bc ff66 0b3d b26e 66bd
00000050: 0554 b13c 706d f1bc ee57 503d 3275 a3bd
00000060: e39c 0d3d 60a8 9037 3888 aebc 37df 2cbc
00000070: e2b8 08bb da8b c63c 641b b8bc 4857 a4bc
00000080: c7c6 81bd c549 c63b c9b4 d6bb 6439 ba3c
00000090: 461b 93bc 7c01 1bbd c78d 113c 704e 3abc
000000a0: 12c7 d7bb 5ca7 64bd a4f6 bb3c 42f4 823c
000000b0: a60d 303c 01f2 96bd 1c0b e8bc 0b44 55bc
000000c0: 6534 263c c414 d63b 0168 75bd e95d ee3a
000000d0: b529 33bd 9922 1a3d e53e 803c c193 163c
000000e0: cbac 1dbd 67d8 34bd de2e 603c ea0c 7dbd
000000f0: 18d3 f6ba 3d9e 40bd ec99 14bd 473c 32bd
00000100: 0a24 99bc 6a11 a0bb a33e fcbc a9c1 abbc
00000110: 1f92 8f3c f398 8bbd a4b1 3dbd fac3 55bd
00000120: 1115 293a b8b6 76bd 93e8 763c c90d 2bbd
00000130: 976d 93bd 9f06 0fbb d3f3 a13c 4fc4 0cbb
00000140: dbf9 33bb 7142 7abd d54c 0fbd 69b4 89bc
00000150: 5756 013d 5c59 88bc 5a14 02bd f1c6 2ebd
00000160: 0d3b 3dbc ca95 e93c dfab d0bc f846 833c
00000170: 83ba 07bd a440 313c 804f 2fbd 3f6f 423c
00000180: f52d 32bd 5c1c 67bd 6843 4abd 207b 1a3d
00000190: 26ce b63b 6090 d73c 5c02 09bd b952 3c3b
000001a0: 0b1c dc3c 0d01 e03c 5d01 6dbd 2816 cc3c
000001b0: 2faa 69bd 3dcd 70bd 0562 023c eddf 1d3a
000001c0: edcd bcbc f49d a73c d28f d7bc dfa5 39bd
000001d0: 80fc 2bbd 9e9c 40bc ad99 1dbd 3b96 70bd
000001e0: dfe7 2cbd 3a0c d83c c52a 01bd c492 a5bc
000001f0: 8c38 133d 0fad 46bd 4cce 4fbd 57d6 9c3c
00000200: 103e cfbc 0089 11bd e753 0dbc ef5a 1bbd
00000210: c072 66bd 02c0 56bd 70a7 37bc f89c 16bd
00000220: 089b 61bd 0bf8 f73c a638 4f3d efcd 15bd
00000230: 7cfa e4bc c105 00bd eae8 1bbc 2770 01bb
00000240: 3410 0fbd 820e 473d 4661 67bc a36b e03c
00000250: 192a e8bc 65b0 45bd 87a9 fc39 3c65 92bc
00000260: 8dfd c63c 988e b43c fa8a 8cbc 249e ea3c
00000270: 9b85 a0bc 4517 7dbd 1460 6bbd dad8 0ebd
00000280: a455 e1bc 968b c2bc 4d78 06bd da5d 713c
00000290: f389 063d b81b 00bc d4c9 a43b 382c 463c
000002a0: da77 10bd 3de1 dd3b 70b5 94bc 0f08 d43c
000002b0: 39aa ec3c 7f13 cabc 8982 e5bc 28a3 b83c
000002c0: e501 6abd 5a0d 47bd b703 933c 72a7 0e3d
000002d0: 3e02 153d a9aa 273d 5bc4 81bc 45b0 43bc
000002e0: a7cf 8cbb e311 65bd c97a d0bc b32f 023d
000002f0: f2c4 52bd eea5 cc3c b7ca 62bc ef13 26bd
00000300: a60f 1a3d 6c9d 01bc 8acf d93c c632 45bd
00000310: e40e 5ebd 906f 58bd c0c4 383c 0b06 9d3c
00000320: b40d 373c 8b8a b5bc cf67 77bc 9193 df3a
00000330: 452b f5bb ca0f 55bc 0dae 0a3d de64 923c
00000340: 4faf 74bc cbcd c7bc 945e af3c c98f 9339
00000350: ea50 83bd 9a65 ec3c a3ba 13bd f1fa 77bd
00000360: 75f7 26bd 4e3f 84bd 5f85 c9bc 74fd 01bd
00000370: ad06 94bc d7aa 34bd a0b7 19bc a84f 3ebd
00000380: 7d42 9b3c 3b12 39bd b4eb b3bc 1639 b9bb
00000390: 4c7c 30bd 3815 66bd d2f9 c9bc d3fb e3bc
000003a0: 79ea b73c 58e3 dfbc f5c6 98bb 7f97 07bc
000003b0: 02a0 3bbc 5341 b33c 50d7 f4bc 1c88 ba3c
000003c0: 921a 3ebd fb9d c73c ec9b 42bd 16ce cc3c
000003d0: d7bd 59bc ec89 113b 91a8 923c bc4a 7cbd
000003e0: 6a69 a5bc f397 ca3b c775 3bbd b2b9 d1bb
000003f0: 33a9 21bd c571 883c 6221 cabc 655e 163d

fc1.bias f4 [120]
0.0014518813 0.001184032 -0.046627514 -0.016900718 0.009711729 0.35235164 0.22110869 0.014475332
-0.037806388 -0.00482359 -0.051034383 -0.040554613 0.11765356 -0.072627254 0.01078948 -0.07363568
0.03374759 0.019129502 0.17703809 0.066663265 -0.067578025 0.06752659 0.021967858 -0.04127337
-0.047224242 -0.09768846 -0.020631311 -0.050049286 0.3364809 0.07287602 0.14521448 0.21474682
-0.09863746 0.23418772 -0.028670702 0.0601104 0.16445619 0.3450054 -0.05569081 0.21155834
0.097310774 0.026885549 0.110071436 -0.058834918 -0.069462605 -0.04893832 0.022456912 0.23756702
0.23956287 0.048847653 0.1435998 0.1915064 -0.011382854 -0.112460986 0.20480558 -0.004484622
-0.03675572 0.16333382 -0.07815552 -0.059481047 -0.03166303 -0.020558717 0.30665636 0.22811615
-0.0053544887 -0.011935915 0.22453797 0.33992496 0.2842113 0.36948946 -0.059661742 -0.061759025
-0.061897777 0.39157644 0.19067097 -0.020935373 0.24128531 -0.04273275 -0.004511604 0.20921963
-0.093246244 0.0095033245 0.3697046 0.03585747 -0.00699888 -0.037009966 -0.006159321 0.06683891
-0.037648164 -0.07970026 0.31491625 0.08358438 -0.11471447 -0.019597273 0.3476372 0.15560281
0.14235121 0.1636408 0.1679002 0.30322745 -0.010614802 -0.011047947 0.30167407 0.34572592
0.23232897 0.0037038445 -0.045936998 -0.063542195 -0.045045365 0.21523383 0.15793255 0.05320044
0.017787658 0.2648225 0.32456064 -0.038619805 0.42212024 -0.021267962 0.18280612 0.33432177
00000000: 0d4d be3a 8531 9b3a 7efc 3ebd 6073 8abc
00000010: f21d 1f3c 6f67 b43e 516a 623e f129 6d3c
00000020: dfda 1abd 350f 9ebb 6e09 51bd 981c 26bd
00000030: 5af4 f03d 99bd 94bd 5cc6 303c 4ece 96bd
00000040: ea3a 0a3d 79b5 9c3c 7949 353e c086 883d
00000050: 5966 8abd 614b 8a3d f0f5 b33c 440e 29bd
00000060: 356e 41bd e310 c8bd ff02 a9bc 7b00 4dbd
00000070: 3947 ac3e 0640 953d 1bb3 143e 97e6 5b3e
00000080: 7002 cabd e8ce 6f3e d2de eabc 5336 763d
00000090: 3467 283e 8ca4 b03e 0c1c 64bd c0a2 583e
000000a0: df4a c73d 153f dc3c 226d e13d e2fc 70bd
000000b0: 6942 8ebd 8c73 48bd 8ff7 b73c c544 733e
000000c0: f84f 753e 7a14 483d d30b 133e 411a 443e
000000d0: 267f 3abc f251 e6bd 8eb8 513e bcf3 92bb
000000e0: 2a8d 16bd fb40 273e 0010 a0bd 66a2 73bd
000000f0: 18b1 01bd c16a a8bc 1002 9d3e 4897 693e
00000100: b574 afbb db8e 43bc 48ed 653e a50a ae3e
00000110: 2584 913e b92d bd3e df5f 74bd 08f7 7cbd
00000120: 8688 7dbd b57c c83e 403f 433e a980 abbc
00000130: 7f13 773e 8908 2fbd 14d6 93bb ac3d 563e
00000140: e3f7 bebd d5b3 1b3c ec49 bd3e 48df 123d
00000150: dc56 e5bb c397 17bd 21d4 c9bb d7e2 883d
00000160: f634 1abd e439 a3bd b43c a13e 4a2e ab3d
00000170: 6cef eabd 768a a0bc 81fd b13e 5856 1f3e
00000180: 84c4 113e 7491 273e 08ee 2b3e a140 9b3e
00000190: b5e9 2dbc 7302 35bc 0675 9a3e fd02 b13e
000001a0: a5e7 6d3e 33bc 723b 6f28 3cbd 6922 82bd
000001b0: 7d81 38bd 4266 5c3e 12b9 213e b4e8 593d
000001c0: 6cb7 913c d196 873e d02c a63e cd2f 1ebd
000001d0: 2520 d83e 263a aebc 8731 3b3e 392c ab3e

fc2.weight f4 [43, 120]
0.070923984 -0.0053183613 0.0061992123 0.011114091 -0.3700852 -0.3869412 -0.07851875 -0.19179128
-0.061140884 0.009036195 0.013658353 0.030851651 -0.23402216 -0.059950814 -0.546348 -0.10203284
-0.2995012 -0.07011322 0.13080232 -0.37142885 -0.07345763 -0.313415 -0.018836813 -0.0019266922
0.0719793 -0.0697356 -0.08489675 -0.06409395 -0.3434433 -0.5146371 -0.34525773 -0.30065432
-0.084831856 -0.14374138 -0.17875147 -0.16688907 0.11245357 -0.1508678 -0.012534544 0.09590123
-0.3367419 -0.050781522 0.05496844 -0.050269373 -0.20976524 0.14562412 0.071171224 0.12782069
-0.32884386 -0.25254953 0.14371338 -0.23542769 0.100333296 -0.20443177 0.15851784 -0.09189694
0.03916543 0.11331192 0.07136413 0.07776446 -0.06918399 -0.06736693 -0.07646059 0.16548574
0.0388099 -0.13810948 0.08157035 -0.03393397 0.14390472 0.10283867 -0.018753644 0.02301595
0.054260544 0.0736353 0.110387884 -0.26051098 -0.3325321 0.03626854 -0.10307216 -0.29306096
0.034145955 -0.5767678 0.09724197 -0.064503506 -0.41948685 -0.0036700035 -0.03768281 -0.31776384
0.091632366 -0.042052973 -0.33118445 -0.2625183 -0.1898718 -0.02613396 -0.12304327 -0.12933229
-0.03101705 -0.15681 -0.17886856 0.011761898 -0.10212889 -0.09381603 0.011975393 -0.25864342
0.07771755 -0.012285306 0.06060454 -0.0006151527 -0.055302642 -0.72098994 -0.4142887 -0.2664855
-0.010125345 0.11629559 -0.23101343 -0.09524873 -0.18517967 0.017803738 0.08536148 -0.34545204
0.023766086 -0.04970657 -0.072498515 -0.030606067 -0.34578964 0.029820045 -0.20224865 -0.114306845
0.02746128 0.052271016 0.011428531 -0.09006477 -0.066303626 -0.00795427 -0.35613623 0.056797154
-0.27315718 0.099257074 0.11873485 -0.37323928 0.06867324 -0.48314726 0.002453799 0.0077485833
-0.029442245 -0.018723791 0.012462807 0.00706546 -0.040345706 -0.2764037 -0.25124535 0.06253554
0.019802641 -0.2361869 0.04759267 0.02411135 0.13877906 -0.18141568 -0.022882247 -0.32631025
-0.27417803 0.06454263 0.00804081 0.008114595 -0.07918712 0.106375605 0.03440324 -0.08890186
-0.2924844 -0.21325846 0.10795059 -0.15259364 -0.09335557 -0.026290778 -0.13749447 0.003340651
0.03332701 0.097045206 -0.04653081 -0.063918754 0.05564274 -0.02722798 0.04527035 0.15641676
-0.072826594 -0.23478685 -0.017318316 0.06961353 0.11976092 0.0492204 0.0507076 5.6539222e-05
-0.010791287 0.14129852 0.12325747 -0.23036413 -0.3145567 0.07527066 0.007953025 -0.15035275
-0.089260064 -0.14972024 0.07147305 -0.088823706 0.009026727 0.049971662 -0.09427319 -0.1853555
0.036535542 -0.05456197 0.06560606 0.06868775 -0.2550366 -0.05730619 0.004403804 -0.18712108
0.114737995 0.166691 0.08479112 -0.035447262 -0.044766802 0.041281715 0.14279689 -0.11901163
0.07223826 0.014334326 0.024442768 0.05294104 0.09467528 -0.4255389 -0.027358979 -0.12961876
-0.026387077 0.11320257 0.09287498 0.06755714 0.07300025 0.005351572 0.14101931 -0.14647259
0.05381571 -0.077402815 0.014368167 -0.06433129 -0.0834386 0.08285432 -0.24442954 -0.13986327
-0.06534667 0.059538513 0.017126402 0.055571314 0.11854681 0.07747372 0.06092121 0.013781583
00000000: 9840 913d a645 aebb c322 cb3b e017 363c
00000010: cf7b bdbe 281d c6be 70ce a0bd ef64 44be
00000020: dd6e 7abd 8d0c 143c 49c7 5f3c 9abc fc3c
00000030: 81a3 6fbe fc8e 75bd 76dd 0bbf 98f6 d0bd
00000040: 3958 99be 8597 8fbd 0bf1 053e ec2b bebe
00000050: f470 96bd ee77 a0be a94f 9abc 1089 fcba
00000060: e269 933d 8ad1 8ebd 59de adbd b043 83bd
00000070: cdd7 afbe 42bf 03bf 9fc5 b0be 5def 99be
00000080: 53bc adbd f130 13be a00a 37be f8e4 2abe
00000090: 0f4e e63d 177d 1abe b05d 4dbc dd67 c43d
000000a0: 6f69 acbe 4900 50bd 9626 613d 42e7 4dbd
000000b0: b3cc 56be 7d1e 153e 38c2 913d 6de3 023e
000000c0: 395e a8be 2c4e 81be 9a29 133e f513 71be
000000d0: 8b7b cd3d 9056 51be 8052 223e 7634 bcbd
000000e0: ee6b 203d 1410 e83d 5b27 923d f942 9f3d
000000f0: 56b0 8dbd acf7 89bd 5f97 9cbd 1875 293e
00000100: 21f7 1e3d 926c 0dbe 5b0e a73d 59fe 0abd
00000110: c25b 133e 159d d23d 3ea1 99bc f28b bc3c
00000120: 4e40 5e3d 1bce 963d 0b13 e23d b261 85be
00000130: a641 aabe 528e 143d 7f17 d3bd 160c 96be
00000140: a1dc 0b3d 0ea7 13bf cc26 c73d 6a1a 84bd
00000150: fbc6 d6be 7184 70bb 4a59 1abd f1b1 a2be
00000160: c0a9 bb3d bd3f 2cbd 0291 a9be cc68 86be
00000170: c16d 42be e316 d6bc 1cfe fbbd af6f 04be
00000180: 7817 febc cd92 20be 5229 37be fab4 403c
00000190: f428 d1bd 9e22 c0bd 7034 443c e96c 84be
000001a0: 612a 9f3d 4f48 49bc 773c 783d 3342 21ba
000001b0: 0685 62bd cc92 38bf a61d d4be ca70 88be
000001c0: c6e4 25bc 622c ee3d c98e 6cbe c411 c3bd
000001d0: bd9f 3dbe 25d9 913c 00d2 ae3d 17df b0be
000001e0: 18b1 c23c 1e99 4bbd 1a7a 94bd 93b9 fabc
000001f0: 570b b1be 2b49 f43c 451a 4fbe b519 eabd
00000200: 7af6 e03c 221a 563d bc3e 3b3c e173 b8bd
00000210: 32ca 87bd a052 02bc 7d57 b6be 22a4 683d
00000220: 42db 8bbe 4b47 cb3d 422b f33d 3819 bfbe
00000230: 8ea4 8c3d 145f f7be eacf 203b d4e7 fd3b
00000240: dd30 f1bc a362 99bc cd30 4c3c 6085 e73b
00000250: 8a41 25bd c984 8dbe 3ba3 80be a212 803d
00000260: 2639 a23c fbda 71be 88f0 423d 2a85 c53c
00000270: 191c 0e3e 08c5 39be 8d73 bbbc 2312 a7be
00000280: 1061 8cbe ed2e 843d 9abd 033c 14f3 043c
00000290: db2c a2bd 74db d93d 69ea 0c3d 2e12 b6bd
000002a0: 84c0 95be 6d60 5abe 3315 dd3d 8241 1cbe
000002b0: 3531 bfbd c25f d7bc 5acb 0cbe d3ee 5a3b
000002c0: e781 083d a3bf c63d 1797 3ebd d6e7 82bd
000002d0: a4e9 633d 360d dfbc 676d 393d b72b 203e
000002e0: 1c26 95bd f76b 70be 24df 8dbc 8a91 8e3d
000002f0: 3745 f53d 559b 493d c6b2 4f3d 8724 6d38
00000300: f0cd 30bc 8fb0 103e 6a6e fc3d 93e4 6bbe
00000310: 930d a1be 8127 9a3d 684d 023c 12f6 19be
00000320: fbcd b6bd 4350 19be 7660 923d 34e9 b5bd
00000330: d6e4 133c 16af 4c3d 4d12 c1bd d5cd 3dbe
00000340: 4ba6 153d 5f7c 5fbd 785c 863d 2aac 8c3d
00000350: 2894 82be e5b9 6abd c94d 903b ab9c 3fbe
00000360: c1fb ea3d 0cb1 2a3e f7a6 ad3d 2631 11bd
00000370: 655d 37bd 0417 293d 5939 123e 5fbc f3bd
00000380: a7f1 933d 85da 6a3c 333c c83c b4d8 583d
00000390: 1de5 c13d 3ce0 d9be f01f e0bc c8ba 04be
000003a0: b629 d8bc c0d6 e73d 3d35 be3d 665b 8a3d
000003b0: 2881 953d 3d5c af3b 5e67 103e e9fc 15be
000003c0: dd6d 5c3d 5e85 9ebd 7668 6b3c 20c0 83bd
000003d0: dbe1 aabd 87af a93d bd4b 7abe 5138 0fbe
000003e0: 7ad4 85bd a8de 733d ab4c 8c3c bf9e 633d
000003f0: abc8 f23d 8baa 9e3d 8588 793d 26cc 613c

fc2.bias f4 [43]
-0.34322417 0.07533444 -0.06400834 0.39021784 -0.00584867 -0.04439703 0.30855316 -0.16606608
0.25832602 -0.017005716 -0.11923748 0.15490557 -0.2575322 -0.23711467 -0.1558345 -0.21730298
-0.45596096 -0.3715311 0.22340487 -0.03466523 0.22536772 -0.04416571 -0.31087923 -0.20772086
-0.037492402 0.21758695 -0.10619936 0.10585878 0.22780725 0.16246022 0.5265623 0.15559635
0.3139236 0.15191492 -0.24195161 0.10309141 0.05659056 -0.14609075 -0.026804572 -0.05937878
0.0733501 -0.3773224 -0.37761784
00000000: 14bb afbe f148 9a3d ce16 83bd a2ca c73e
00000010: 33a6 bfbb a9d9 35bd aefa 9d3e 3a0d 2abe
00000020: 4f43 843e 924f 8bbc c832 f4bd 919f 1e3e
00000030: 43db 83be 30ce 72be 1493 1fbe ac84 5ebe
00000040: b773 e9be 5339 bebe 3fc4 643e 21fd 0dbd
00000050: ccc6 663e 1be7 34bd 902b 9fbe c7b4 54be
00000060: a291 19bd 1dcf 5e3e 0d7f d9bd 7dcc d83d
00000070: 4e46 693e f95b 263e c9cc 063f a654 1f3e
00000080: 98ba a03e 968f 1b3e 2ac2 77be 9721 d33d
00000090: 81cb 673d d098 15be 4395 dbbc 2a37 73bd
000000a0: 9438 963d 6730 c1be 2057 c1be
