models/GTSRBNet_no_dropout.pth (torch, 228112 bytes, 8 tensors)

conv1.weight f4 [6, 3, 5, 5]
00000000: 55d5 cb3d 41e7 b53d 9eec 373e 5c09 dd3d
00000010: 1c30 353e a055 283c 1c25 6ebd 5148 cabc
00000020: 0133 d1ba 73f6 bebc 5239 2abd 2010 6b3a
00000030: d113 30bd 43f7 f6bb da04 82bd eae9 9d3d
00000040: e5f3 c93d d955 0e3e cd4d c8ba 37d9 0a3e
00000050: b92b 233e 4cd6 1c3e 3ff5 8a3d fa60 863e
00000060: 8227 b43d 8056 c3bd 5804 a0bd 06f9 873c
00000070: ea37 883d f27d 4e3e 08f3 92bd 458f 9cbc
00000080: 80d1 32be d41a 4a3d bf64 efbd 0133 f53c
00000090: 9754 4f3d 043b ac3a bcfe a8bc 3d33 a9bd
000000a0: b9de 843c d95e 95bd 8288 8b3d 308c 883d
000000b0: 0b56 253d 9a27 953c 0f24 253d 900b 9ebd
000000c0: 9ec3 b93d d60d 2b3e 6a24 18be df80 9cbd
000000d0: 1ba6 33be 8aee 7e3c f294 a93d 97bd e8bc
000000e0: dfe0 69be 7071 a2be 2912 6dbe d8f9 79bc
000000f0: 5e3a 3cbe 6955 23be 41d3 96be fab9 acbe
00000100: 22ee 56be 424f bcbd 3991 ecbd 31e3 32be
00000110: 60dc 9abd 6608 02be dcd6 d9bd e4a6 f2bd
00000120: ae83 fbbd c2d0 013e d6d9 213d be31 88be
00000130: 50eb b8be 5405 1fbe f15e f43c 3075 033e
00000140: eb72 9cbe a16a 96be 3e19 a03a 04a5 b83d
00000150: f2ec ad3d 79fb c9be b0e4 d2be 023d b73c
00000160: 82aa 7b3d 9b8f c23c 5d84 9fbe 6152 a5be
00000170: b83b aebd b183 4b3e 2dc0 d83d 7ebc 3cbe
00000180: 6414 41be 8164 b53d 90d9 ed3d 3d49 093e
00000190: a3d0 39be f421 99be 9f8f 9dbd 2b45 eb3c
000001a0: e7b3 1f3e 2654 84be 530d 91be ba65 343e
000001b0: 7c58 683e 0b49 5e3e 718e 62be 967b 87bd
000001c0: a8da 783d a3d8 8b3e ca0f 8d3d 2882 17be
000001d0: f29e 67be fc8f 3d3e 8c3e 623e 78f7 183d
000001e0: 0d80 07be 89e5 e63c c782 363e 0a79 2b3e
000001f0: 8351 373e 47ff e33d 949e ffbd f53c f93c
00000200: 7002 473d c74c fe3d dd01 143d b340 803d
00000210: 2fb8 9a3d e29d 073e bd48 7f3d 2ecb 9ab9
00000220: b5f1 6d3d 9e30 703e a198 623e a814 4d3e
00000230: 8879 b5bc 6a25 9b3b 3bbb 403e 3f5a 9d3d
00000240: b23f 8f3d 954d edbd 4667 b43d 2f8d 8b3e
00000250: 733a b03d 0f06 f2bd 36dc a9bd e275 433c
00000260: 5c9f 84be d459 80be 3a9f 743d 040e f43d
00000270: 3c1c 843d 4187 133d 0641 26be 68fc b4be
00000280: 7a5c 8d3d efa1 223e 5b50 553e 9868 2fbe
00000290: 935e 4bbe f3ed 9f3c 6e3d 863e 79bb 423e
000002a0: ceb5 743d f3d2 88be 3d97 25be 87ad 1c3e
000002b0: e172 073e 96d8 8fbc b649 4abe 1824 9bbd
000002c0: 08b5 36be f045 98be dd51 c9be b9af 1bbe
000002d0: 03d6 b63d dcba d53d 1b2b d7bd 98bf a4be
000002e0: 79ec 47be b659 763d 1c6c a43e 37ec 323e
000002f0: 2e8e af3a 99b8 82be 3b7a acbc 7878 123e
00000300: 8690 c93e de69 733c 36d6 9ebe 5d6c a43d
00000310: 386e e53d 3bfb ac3e d4a0 5a3e 21c7 4ebe
00000320: 4c08 b53b a127 5abe e0ff 8bbe 6473 67be
00000330: 01cd 863b 1a35 fc3d a5e5 5c3c 2ac7 35bd
00000340: 3cd9 60be d476 2abe 0026 fd3d a001 5a3e
00000350: d71a b13e 00f8 fa3d 8ffb 5ebe 549a 2a3d
00000360: 982f 933e 6fd1 713e 505b 453e 2135 11be
00000370: 423d 4b3d 4012 233e aac8 bd3e 2d3f 923e
00000380: 5c2d babd c79a cb3d fe53 8c3e b04d 833e
00000390: 4c2a dd3c 1fef a4be 3381 783d 13c8 613e
000003a0: 5279 3f3e 9bba 85bd f0b4 94be 49a6 26be
000003b0: ffeb 05bd 04f1 303e 4687 8ebd d438 21be
000003c0: c615 00bf f747 e5be 9ed8 b1be b8fa d9bd
000003d0: 33e0 31be 803d e7be 0f21 0cbf e01b 14bf
000003e0: ae73 f1be 3962 b1be 3e98 093e 9d65 4b3e
000003f0: b7ea a53e 05f5 863e f8d5 19be 5b11 713d
0.09952799 0.08881999 0.17961356 0.10792801 0.17694134 0.010274321 -0.05814086 -0.024692686
-0.0015960635 -0.023310876 -0.04155857 0.00089669414 -0.04298765 -0.0075368 -0.063485816 0.07710631
0.09860972 0.13899936 -0.0015281976 0.13559423 0.15934648 0.15316123 0.06785058 0.26245862
0.08796598 -0.09537983 -0.078133285 0.016598236 0.0665129 0.20165232 -0.07175261 -0.019111285
-0.1746273 0.04934199 -0.11689138 0.029931547 0.05061778 0.0013140147 -0.02062928 -0.08261726
0.016219484 -0.072934814 0.06813146 0.06667364 0.04036526 0.01820736 0.04031759 -0.07717049
0.09070514 0.16704497 -0.14857641 -0.07641768 -0.17543833 0.015559802 0.08280362 -0.028410716
-0.22839688 -0.3172717 -0.23151459 -0.015257321 -0.1838164 -0.1595055 -0.2945805 -0.3373564
-0.20989278 -0.09194805 -0.115511365 -0.17469479 -0.075615644 -0.12698516 -0.10636684 -0.11848238
-0.12280975 0.12677291 0.039514385 -0.2660045 -0.3611703 -0.15529376 0.029830428 0.12837672
-0.30556425 -0.29378226 0.0012214554 0.09015849 0.08492459 -0.3944967 -0.411901 0.022367958
0.061441906 0.023750117 -0.31155673 -0.32289413 -0.08507484 0.19874455 0.105835296 -0.18431279
-0.18855435 0.0885706 0.116137624 0.13406844 -0.18145995 -0.29908717 -0.07693409 0.028719505
0.15595971 -0.2584545 -0.28330478 0.1761693 0.22690004 0.21707551 -0.2212465 -0.06615369
0.0607554 0.27313718 0.06887777 -0.14795744 -0.22619227 0.18511957 0.22094172 0.03734538
-0.13232441 0.028185623 0.17823325 0.16745391 0.17902188 0.11132675 -0.12481418 0.030424574
0.04858631 0.12416988 0.03613459 0.062623404 0.075546615 0.13243821 0.062325228 -0.0002952455
0.058091838 0.23456046 0.22128536 0.20027411 -0.022152677 0.0047346847 0.18821423 0.07683229
0.06994571 -0.11587063 0.0880876 0.27256152 0.08604898 -0.11817562 -0.08293955 0.011929961
-0.25902832 -0.25068533 0.059722163 0.11916736 0.06450698 0.03601766 -0.16235742 -0.3534882
0.06902404 0.15882085 0.20831434 -0.17129743 -0.19860296 0.019522643 0.26218742 0.19016828
0.059743695 -0.2672344 -0.16170974 0.1530057 0.13227417 -0.01755933 -0.19754681 -0.07575244
-0.17842495 -0.29740858 -0.3932027 -0.15203752 0.08927538 0.10436031 -0.105062686 -0.32177424
-0.19523801 0.06014415 0.3211373 0.17472921 0.0013393813 -0.25531462 -0.021054378 0.14303768
0.39368075 0.014856784 -0.31022805 0.08028481 0.11202663 0.33785424 0.21350414 -0.20193149
0.0055246707 -0.2130418 -0.27343655 -0.22602612 0.004113794 0.12314816 0.013482486 -0.04437939
-0.21957868 -0.16646892 0.123607635 0.21289682 0.3459079 0.122543335 -0.2177565 0.041651085
0.2874725 0.23615049 0.19273114 -0.14180423 0.049618967 0.1592493 0.37067157 0.28563824
-0.09090683 0.09941631 0.2740783 0.25645208 0.026997708 -0.32213685 0.06067009 0.22048979
0.18698624 -0.06529733 -0.29044294 -0.1627437 -0.032695767 0.1727944 -0.06959395 -0.15744334
-0.50033224 -0.44781467 -0.34735578 -0.10643524 -0.17370681 -0.45164108 -0.54737943 -0.57855034
-0.4715857 -0.3464525 0.13436982 0.19862981 0.32405636 0.2635881 -0.15023029 0.058854442

conv1.bias f4 [6]
00000000: 87e1 8abe 6f2b e23d 08bc 673e 1b8b 333e
00000010: d168 dd3d ef50 073e
-0.2712519 0.110434406 0.22630322 0.17533533 0.10811008 0.13214467

conv2.weight f4 [16, 6, 5, 5]
00000000: 2343 ecbd cc8c 27be be10 70be 4fde d1bd
00000010: cdfd c9bd af98 a1bd 8990 dc3c f9a1 14be
00000020: f329 f7bc a4b0 00bb 6484 40bd d910 3c3d
00000030: da9f 1f3e 0180 3a3e 1996 143e f544 55bd
00000040: ed1f a93d 4a58 373e bd67 253e ebd4 173e
00000050: bebf be3c c32b 2e3e 2543 5f3e 3e8a 7e3e
00000060: 83a0 053e 4907 013e ba16 6e3e 929f 82bd
00000070: c463 13be 0f9f f7bc e5a1 973e 24b7 3a3e
00000080: c56c 06bc f053 0fbe d486 82be 5c53 913e
00000090: 7fb1 6dbd d774 d0be d921 30bd 9200 f8bd
000000a0: db03 e93c 7a87 62be 9384 a3be e425 223b
000000b0: cb4c 183d ff32 a9be 9167 b2be 7a2f 83be
000000c0: 13cc a13d b238 cb3d 3f62 89be c4bb 9dbd
000000d0: 65cc f9bc f9d1 7bbd 6ef9 963d 8ee3 933e
000000e0: 41a0 3fbe e13a d3be 10a4 b9be 4101 83bc
000000f0: f05f 263e 3701 5b3e b978 73be aa0c 49bf
00000100: b536 9bbe b4e8 e8bd 42c7 153e 0ccc b1bd
00000110: 7e17 25bf a6b7 bbbe a453 763d d5bb a73d
00000120: 79fa 2b3d 62bc 17be 8d48 03bd 99f0 e73d
00000130: 1a49 b7bd 25a4 28be d8ca 36be a261 5f3d
00000140: 8aac 05be 890c 1cbe 5ceb fb3d cbec 523e
00000150: 485d 233e 11f8 80bd f1f6 49be 40b2 e13d
00000160: b0bd 593e 66e5 4d3e 769a 353e bf66 9e3e
00000170: 7876 3abe 8b7f c0bd b507 bcbd f15e 763d
00000180: df29 46bb 04ea cabd bbee 83be a3a3 dcbd
00000190: 2f4d 343d 9af9 b73d 6bd1 2abe 4676 28be
000001a0: f309 f8bd 4fb4 933d 6e28 14bd 3fa4 57bd
000001b0: 8a28 cbbb daa4 44bd ce00 0e3b 7931 c2bd
000001c0: 87fd 783d 1c36 503e cea5 393e 78ee ce3d
000001d0: aadd e63d 5719 ab3d 6fad 6d3e 9dd2 433e
000001e0: 3083 a63d ce76 f03d fb44 663e 4465 dd3d
000001f0: 5853 353e d90b 023e cac5 4cbd 4f7a b8bd
00000200: 9e44 3dbe d4d5 343e d31a c2be 734e fd3d
00000210: 8c4f f83d 0373 0a3e 5094 173d 1a55 b3be
00000220: 4b9f 79be edc1 473e 1d67 513e 1c7b fabd
00000230: fc00 ab3d 91af c53b e08f 5fbc 2399 1fbd
00000240: 5bc0 80be 22ad 023e 012a 063e a337 463d
00000250: 62b3 a63d aa05 ca3d 5d7d e53c ba33 bbbd
00000260: d4c8 e23c 84c0 1a3a 17a9 8b3b 021f 24bd
00000270: a347 c8bd 1ed9 1dbd 9275 a33d 07a3 b13d
00000280: c127 5abc ccc5 1cbd 1b37 203d 8d5a 3f3d
00000290: 1645 dabc 2cde 13b9 0e7b a33b 781e 863d
000002a0: a5b0 c2bd 1679 99bd 9bd0 4abd 52a2 473d
000002b0: 21c6 6abd 3357 57bb ef4c 413c 0782 fb3d
000002c0: b328 09be c2e2 b3bd 78a5 403d 0285 0bbe
000002d0: 2961 823c 466d d4bd 1afb 203e d0ba a73d
000002e0: 8104 173c 421b a1bd 3dc4 bfbd ddac 993e
000002f0: 6e7d 7e3e 16e2 b33c e941 1dbe d6b8 573d
00000300: 1b04 ae3e 90fc 803e 200d 83be 4ff9 16b9
00000310: ff3b 2d3d 5dec 2f3e 3d61 503d fccc e5be
00000320: e32b 293d 224e 253e 51ad d0bd e789 01be
00000330: 06d5 5d3d 4396 9d3c 78e6 803d 056d 32bd
00000340: b624 31be 8293 043e 14cd 433e 3781 55bb
00000350: a10f 56be 0313 55bd 4680 113e b904 203d
00000360: 54d7 513c 166b c1be 4f18 bcbd dbee 1b3e
00000370: bb55 c23d 83c6 afbd 614c 8dbe ba0f 4bbe
00000380: cff6 223d 63f3 d3bc 7c60 da3c ce75 7f3c
00000390: de53 a33d 9d22 86bd eade d43d 2235 103e
000003a0: d1bc 553e 721d 853d a4c9 49bd 74e5 c53d
000003b0: dc19 123e 2de5 96bc 9909 87be 2ee1 69be
000003c0: 2494 87ba 2027 5ebe 41e9 e8be 2be5 6abe
000003d0: 5673 90bc a049 15bd 9615 ecbd 54af dcbd
000003e0: 8471 d73d 8043 9d3c 004a 133e 81df ee3d
000003f0: 7c0a d23c 85a8 213d 7bb6 a53d fc22 8b3d
-0.11536243 -0.16362303 -0.23443887 -0.1024748 -0.09862862 -0.0789045 0.026924388 -0.14514913
-0.03017137 -0.0019636536 -0.047001258 0.045914505 0.15588322 0.18212892 0.14510383 -0.052067716
0.082580425 0.17904773 0.16152854 0.14827316 0.02328479 0.17008881 0.21802957 0.24857423
0.13049512 0.12600435 0.23250857 -0.06378092 -0.14393526 -0.030227212 0.29615703 0.18233925
-0.008204644 -0.13996863 -0.2549349 0.2838391 -0.0580306 -0.40714142 -0.04300103 -0.12109484
0.028444221 -0.22121993 -0.31937084 0.0024741823 0.03718261 -0.3304672 -0.3484464 -0.2562216
0.07900252 0.09922923 -0.26832768 -0.07701829 -0.03049297 -0.061479542 0.07371794 0.28884548
-0.18713476 -0.4125586 -0.36257982 -0.015991809 0.16247535 0.21387182 -0.23776521 -0.7853495
-0.30315176 -0.113725096 0.14626792 -0.08681497 -0.6448897 -0.3666355 0.06013836 0.08190123
0.041986916 -0.14817956 -0.03205161 0.11325187 -0.0894949 -0.16468866 -0.17850816 0.05453647
-0.130541 -0.15239157 0.123007506 0.20598142 0.15953553 -0.06297315 -0.19723107 0.110203266
0.21263766 0.2010704 0.17734703 0.30937764 -0.18209255 -0.09399327 -0.091811575 0.060149137
-0.003023736 -0.09907916 -0.25768074 -0.10773399 0.04401892 0.089831546 -0.16681449 -0.16451368
-0.12111273 0.072121255 -0.03617137 -0.05264687 -0.006199901 -0.048008777 0.002166796 -0.094820924
0.060788658 0.20333141 0.18129656 0.10104078 0.11272748 0.083544426 0.23210691 0.19123311
0.08130491 0.1174141 0.22487251 0.108103305 0.17707574 0.12699832 -0.049993314 -0.090077035
-0.18483207 0.17659694 -0.3791109 0.123684786 0.12124547 0.13520436 0.037006676 -0.35025865
-0.24377172 0.1950757 0.20449491 -0.122305125 0.08349797 0.006032892 -0.013645142 -0.038964402
-0.25146756 0.12761357 0.1310196 0.048392903 0.08139683 0.098643616 0.02801388 -0.091407254
0.027683653 0.0005903321 0.0042621004 -0.040068634 -0.097792886 -0.038537137 0.07981409 0.08673673
-0.013315142 -0.03827457 0.039115053 0.046717215 -0.02664427 -0.00014101778 0.0049890345 0.0654878
-0.095063485 -0.074937984 -0.049515348 0.048738785 -0.057317857 -0.0032858371 0.011798128 0.1228066
-0.13394432 -0.08783485 0.047032803 -0.13624957 0.01591547 -0.10372405 0.15720788 0.081899285
0.009217382 -0.07866527 -0.09363601 0.30014697 0.24852535 0.021958392 -0.15357174 0.052666508
0.33987507 0.2519269 -0.2559595 -0.0001439799 0.042293545 0.17180009 0.050873984 -0.44882953
0.04130162 0.16143087 -0.101893075 -0.12650262 0.054158233 0.01923669 0.062939584 -0.043561
-0.1729916 0.12946895 0.191212 -0.0032578239 -0.209044 -0.052020084 0.14209089 0.039067004
0.012807686 -0.37777013 -0.09184324 0.15227835 0.09489008 -0.08582785 -0.27597335 -0.19830218
0.039786156 -0.025872892 0.026657335 0.015592052 0.07974981 -0.06549571 0.1039408 0.14082769
0.20872809 0.06499757 -0.049264565 0.09662905 0.14267677 -0.018419826 -0.2637451 -0.22839805
-0.0010343832 -0.21694613 -0.4549046 -0.22938983 -0.017633121 -0.036447167 -0.11527555 -0.10775629
0.10519698 0.019197226 0.14383698 0.11663724 0.025639765 0.039467353 0.08091446 0.06793782

conv2.bias f4 [16]
00000000: e814 3f3d c42e ac3d b2ed b93c 23a5 12bd
00000010: fbfb 063e 545f 883e 9cbf 583e c5a9 263e
00000020: a772 893e c1d7 853e 2815 9d3d 8551 9e3c
00000030: bad9 8f3e 8011 04bd 9383 b13d 9b20 0e3e
0.046650797 0.08407357 0.02269635 -0.035802018 0.1318206 0.2663523 0.21166843 0.162757
0.26845285 0.2614117 0.07670051 0.01932598 0.280958 -0.03224325 0.08667674 0.13879625

fc1.weight f4 [120, 400]
00000000: 82d8 a4bc 8f91 043d 88f4 33bd c717 0b3d
00000010: e090 83bd e6a2 8a3c 03ed d8bb b467 d7bc
00000020: e7a9 6fbd 9c4f 62bd a080 f33c 3e31 72bc
00000030: 74f9 d23a 46fc db3c d61d 25bd 589b 81bb
00000040: e78f 69bc 3f09 ef3c 0113 09bc 5d46 95bc
00000050: ff63 b7bc d596 a03c 8c3b 25bc 541c 90bb
00000060: b3c8 7c3c 5703 2cbc 4dc7 703c 195a 0abd
00000070: 2d10 80bd feaf 7abd 6a54 28bc 7f44 fabc
00000080: b2c1 043d df6d 1dbd 3013 10bc 5de9 01bd
00000090: a2aa c9bc 5094 febc 3aab 5b3d c6ca 65bd
000000a0: b98a b6bb 54c4 55bc 44fa acbc 9554 a83c
000000b0: d1d1 f83a d6d8 f3bb 7a87 1dbd d365 84bd
000000c0: bf3a 1b3d 14ed 4b3b 36b7 22bd 1de3 bf3b
000000d0: 2b13 7f39 d9e4 c63c fec5 56bd 4364 dfbc
000000e0: 3dff 37bd d728 913c 89e4 5fbd 2c0f 11bc
000000f0: c185 78bd 1690 babc 4df0 46bd 75e5 42bc
00000100: c051 3ebc 87ad 2f3c d4ef b4bc 4101 52bc
00000110: 6a5b 03bd debb 7bbd c77f fcbc 1563 4a3c
00000120: 2943 00bd 879a 03bd 0f3e 2ebc a2fe 58bc
00000130: 976d 903c 59cd 6bbd c6e8 bdbc 2cf4 66bc
00000140: 012e d2bc fad0 2f3d 1f4a 8c3c bce5 7dbc
00000150: 111b 26bd d2ce 6cbd d9fd 97bc 2357 7cbd
00000160: e16e f53b 8f3b f23c 5e42 24bd 5e7e 2ebd
00000170: a3a8 edbc 5f4a ca3c 0986 38bd 75ae 613c
00000180: aed9 373c 4135 17bd 1206 f5bc e5fe caba
00000190: c88b 2ebc 1f49 083c 359f e03c 025e c53c
000001a0: b391 f8bc bbd6 79bc 44d8 9d3c c291 01bb
000001b0: d101 7cbd d0d9 7ebd 5fa2 bb3c 92c4 b5bb
000001c0: 0aa3 59bd 7397 f6bc a88a 44bd 9879 d8bc
000001d0: bd7f 50bd 35d4 88bc a176 18bd 78cf dfbc
000001e0: 1986 ee3c ec06 9dbc 7f8c 433c 3e29 91bc
000001f0: df89 1dbc bd70 49bd e8d6 02bc 9ef3 2f3c
00000200: 549e ff3c 5d47 be3c 934a 93ba b913 a23b
00000210: a0fd 35bc 01ea 153c 39ac 8a3c f301 8c3c
00000220: 6a6b 3cbc c0b4 91bc f456 04bd c5ab 4a3a
00000230: 0066 dd3c 80c2 9fbc 38c9 64bd 6e03 7abd
00000240: 4cf1 bbbc 552f e5bc feb8 16bd 013e 63bd
00000250: 60c0 fbba 59f2 f8bc 9cb9 03bd 85ca 0b3b
00000260: 4503 0bbd c1c9 b13c 52f8 093b 4c4f 37ba
00000270: e561 7cbd 0343 85bc 0005 973b bd9a 7e3c
00000280: 4e28 60bd 56a1 bcbc ae40 08bd b002 8dbc
00000290: 67b0 e8bc d4ba dabc 11be dfbc eb6d c43c
000002a0: c8f0 e53b e70b 453c bddd 12bd 90f9 64bd
000002b0: 9541 13bd f9db 39bd 4ec4 ef3c 31f2 2f3c
000002c0: d0c2 9abc 303d 5e3c 9a50 33bd 2c27 39bd
000002d0: 15a5 33bd 768f b2bc 1a32 333d 67c1 313c
000002e0: 5c59 86bc 216f ae3c 28a9 a33b cc24 58bd
000002f0: fd69 233c 4b15 6cbc 4588 063d dc86 bfbc
00000300: 548f 26bd 85a4 dabc 07ab 87bc 61e5 efbc
00000310: e2ea 673c a612 21bc 3dd2 2abd 8c3a 26bd
00000320: 41b3 27bd 35d3 febc 9d23 d43c aa79 54bd
00000330: db70 8f3c e7eb 4cbd 9aff 813b a55c 023c
00000340: 95ed d93c 9396 4abd 315f 12bd 2b38 cabc
00000350: c8cb 78bd ca7d 0bbd a33c dabb 60e7 b9bc
00000360: 2147 c9bc 1a8c 803c aefc 2dbc d969 873c
00000370: 92b9 30bd 007b 10bd 0403 f13c 88d3 03bc
00000380: b0f7 4fbc 723e b13b d409 a93c ffc7 eb3c
00000390: 4b72 32bd 988b 61bd d061 bc3c c74e 8a3b
000003a0: b081 52b9 e6ad 78bd d427 c13c 4356 81bd
000003b0: 714a 1abb 4516 dd3c 9c39 0c3d 3061 68bc
000003c0: 7801 a9bc 6621 d73c cd45 91bc 55f3 53bd
000003d0: 74c5 20bd d3a4 053d 38c4 42bd 5c59 69bd
000003e0: f4d6 86bd cb68 d23c 7da2 bf3b 4b76 dfbc
000003f0: 3a07 12bd 6ec8 12bd 40aa bf3c cc0b f1bc
-0.02012277 0.032365378 -0.043934375 0.033958223 -0.06424117 0.01692338 -0.006620051 -0.026294567
-0.05851164 -0.055251703 0.02972442 -0.014782248 0.0016096071 0.026853692 -0.040311657 -0.003955286
-0.0142555 0.029179214 -0.008366347 -0.018222028 -0.022386549 0.019603172 -0.010084998 -0.004397908
0.01542871 -0.010498843 0.0146959545 -0.03377733 -0.06253085 -0.061202995 -0.010274032 -0.03055024
0.032411285 -0.03843486 -0.008793637 -0.031716693 -0.024617497 -0.03107658 0.05363009 -0.056101583
-0.0055707362 -0.013047297 -0.02111543 0.020548144 0.0018983429 -0.0074416203 -0.03845928 -0.06464734
0.03789782 0.0031116651 -0.039725505 0.0058559314 0.00024325836 0.024279045 -0.052434914 -0.027269488
-0.04492115 0.01771967 -0.054661307 -0.008853715 -0.060674433 -0.022773784 -0.048569012 -0.011895527
-0.01161617 0.0107225245 -0.022087015 -0.012817682 -0.0320696 -0.06145846 -0.030822648 0.012352725
-0.03131405 -0.03212979 -0.010634913 -0.013244303 0.017630382 -0.05756888 -0.023182284 -0.014096301
-0.025656702 0.042923905 0.017125187 -0.0154966675 -0.040553156 -0.057814427 -0.018553661 -0.061606538
0.0074900244 0.029569415 -0.040102355 -0.042600982 -0.029011076 0.024693666 -0.0450497 0.013774504
0.0112213325 -0.03691602 -0.029910121 -0.0015487341 -0.010653444 0.008318215 0.027419666 0.024092678
-0.030342912 -0.01524895 0.019268163 -0.0019770716 -0.06152517 -0.06221944 0.022904573 -0.0055471146
-0.053134 -0.030101513 -0.047983795 -0.026425168 -0.05090307 -0.01670275 -0.03722251 -0.027320608
0.029116677 -0.01916834 0.011935352 -0.017719861 -0.009615391 -0.04917978 -0.007985808 0.010739235
0.031203426 0.023227388 -0.0011237435 0.004946199 -0.011107832 0.009150029 0.016927825 0.017090773
-0.011500219 -0.017786384 -0.032309487 0.0007731284 0.027026176 -0.019501925 -0.05585596 -0.061038427
-0.022942208 -0.027976671 -0.036797516 -0.055479053 -0.0019207112 -0.030388998 -0.032159433 0.0021330428
-0.033938665 0.02170265 0.0021052551 -0.0006992712 -0.061616797 -0.016267305 0.0046087503 0.015539822
-0.054725938 -0.02302615 -0.03326481 -0.017213196 -0.028404428 -0.026700415 -0.02731231 0.023978194
0.0070172288 0.0120267635 -0.035855997 -0.055902064 -0.035951216 -0.045375798 0.02926841 0.010738895
-0.018891722 0.013564393 -0.04377804 -0.045203373 -0.043858606 -0.021796923 0.043748952 0.010849333
-0.016400032 0.021293225 0.00499453 -0.052769467 0.009974 -0.0144093735 0.0328448 -0.023379736
-0.040664032 -0.026689777 -0.016561044 -0.029284181 0.0141551215 -0.009831106 -0.041704405 -0.04058318
-0.040942434 -0.03110657 0.025895888 -0.05187384 0.017509868 -0.05002966 0.0039672377 0.0079566585
0.026602546 -0.049460005 -0.035735313 -0.024684986 -0.060741216 -0.03405551 -0.0066600605 -0.022693336
-0.02457005 0.015691806 -0.010619326 0.016529964 -0.043145724 -0.035273552 0.029420383 -0.008046038
-0.012693331 0.0054090554 0.02063457 0.028781889 -0.04356603 -0.055064768 0.02299586 0.004220817
-0.00020075473 -0.060712717 0.023578562 -0.06315281 -0.0023542906 0.026988158 0.034234628 -0.014183328
-0.020630583 0.026261043 -0.017733479 -0.05174573 -0.039250806 0.03262789 -0.04755041 -0.056969985
-0.06583968 0.025684735 0.0058482275 -0.027278086 -0.035651423 -0.035835676 0.023396611 -0.02942457

fc1.bias f4 [120]
00000000: 80d7 e4bc d987 9b3c cb62 4cbd dbc7 943d
00000010: fc78 e5bd 4f56 9abc 2c40 2a3d d9aa 243e
00000020: f9e4 9cbd f9e2 fb3c de06 c73c 2e53 0e3e
00000030: 41b2 2a3d 7001 063c 59a9 24bd 46fc 813d
00000040: 6189 47bd c149 83bd 7486 77bd daa4 4d3c
00000050: 5693 5bbd b2bc 0ebd 65b6 95bd 3a77 be3c
00000060: 9a74 cbbd 8e16 bc3c b708 613c 64bf 263e
00000070: 0547 75bd dbed 1d3e f40f 593d 43d6 ba3d
00000080: 7410 073e 15be c83d f904 e83d 4966 acbd
00000090: c1e8 383d dffe 063a 27b5 803e 0771 503e
000000a0: 1501 adbc 587d a2bd 31fa 5c3d 9a6d ca3c
000000b0: 398d 70bd 4ee3 cd3d 80f9 6abc 23b1 7dbc
000000c0: a611 e83c d295 f93d 82a1 b1bd bdc4 3cbd
000000d0: a28d fb3d c0ff 743e 9985 07bd 561c 413e
000000e0: 9aba 06bd d807 efbb a8c0 643c f958 ca3c
000000f0: 0ca1 71bc 315f 5fbd 8ecb bbb9 1a17 433e
00000100: 3088 0c3d a45f 5ebb cf51 583e aa35 6a3d
00000110: b540 5f3e 7c25 fb3d 0817 f3bc a379 0d38
00000120: 8fd6 793c 5154 b4bb 1b2e 323e 2556 433e
00000130: fc44 933d f29c 62bd 5212 8d3d 5ebc 003d
00000140: 6936 1b3e 6bcd 5cbd 6bf8 39bd c48a 77bd
00000150: a2a2 fdbc 4df9 23bd 4f52 923d 86b6 acbd
00000160: 050a 7fbc e2a0 3f3e 69ea fabc 04fa 823c
00000170: 9e8e f23c 526f 083c 4183 183e d3aa f23d
00000180: d3b1 ea3d 4ce8 373e 3c5e b8bd 2c66 c8bd
00000190: d432 f9bc 71e3 6cbc c12c e83c 92e9 703c
000001a0: 45bd b4bc cee2 9f3e 258e febd 3632 943d
000001b0: b6be 4fbd 28d6 0dbc 6bb9 f83b b61a c0bd
000001c0: ca28 a1bc 2f72 0d3e f117 46bd cde8 ffbd
000001d0: 0a5b 40bd 0c8e f73d b218 4e3e 81e3 7abb
-0.02793479 0.018985676 -0.049898904 0.07264682 -0.112047166 -0.018839983 0.041565105 0.16080798
-0.076608606 0.030747877 0.024295267 0.13898918 0.041673902 0.008179054 -0.040200565 0.063469455
-0.048715 -0.06410552 -0.06043096 0.012551511 -0.053607307 -0.034847923 -0.073101796 0.023250211
-0.09934349 0.022959974 0.013734988 0.16283947 -0.059882183 0.15422766 0.05299373 0.091228984
0.1318987 0.0980188 0.113290735 -0.08417947 0.045143846 0.0005149673 0.25138208 0.20355617
-0.02111868 -0.07934064 0.05394954 0.024710465 -0.05872843 0.100531206 -0.014341712 -0.015484127
0.028328728 0.12186779 -0.08673383 -0.04608606 0.12282874 0.23925686 -0.033086393 0.18858466
-0.0328928 -0.007294636 0.013961948 0.024700629 -0.014747869 -0.05453414 -0.0003581908 0.19051781
0.034309566 -0.0033931518 0.21124958 0.057180084 0.21802028 0.12263009 -0.029674068 3.3730303e-05
0.015248909 -0.0055032154 0.174004 0.1907583 0.07190892 -0.055325456 0.0688826 0.03142964
0.15157475 -0.05390684 -0.045402925 -0.06043507 -0.030961338 -0.040032674 0.07144605 -0.08433251
-0.015566354 0.18713716 -0.030629354 0.015988357 0.02960902 0.008327322 0.1489382 0.118489884
0.114596985 0.17959708 -0.09002349 -0.09785113 -0.030419745 -0.014458523 0.028341653 0.014704125
-0.022062907 0.31227726 -0.12429456 0.072361395 -0.050718985 -0.008657016 0.007590463 -0.09380095
-0.01967277 0.13813089 -0.048362676 -0.12495575 -0.04696182 0.1208764 0.20126608 -0.0038282576

fc2.weight f4 [43, 120]
00000000: 1e99 f0bc 794d c23d 4a28 7dbe 876b 84bc
00000010: cb08 e2bc bf99 91bd 6793 383d 38d7 afbd
00000020: 12dd 253d b808 ac3d e530 173e b3b6 c33d
00000030: 2e12 30be b836 bebc b34c 3a3d 0ffe 7cbd
00000040: bdb6 913d c9d4 543d 4d83 c0be b2c7 813e
00000050: 0bfd db3d b6ba 5bbd 9ad2 b9bb 1f9c c1bd
00000060: e929 02be 6771 b0bc 5716 283d 346a 113e
00000070: d01c 7f3d bb40 88be c5e9 a1be 8291 e73d
00000080: 177b 3bbd c304 3c3e d9f5 d1bd b9e1 1abe
00000090: f538 69bb 610c a3bd d4f4 103e fc6f ba3c
000000a0: 7705 233d ef89 93bc 653d 2c3e 1056 86bc
000000b0: ec77 cc3d f7c3 f7bd 17b8 dfbc 9a9a bd3d
000000c0: 5cb8 2abe dafa adbe da01 e2bb dbb6 a9bd
000000d0: 252f 66be 0114 343e 7245 a5bd 975a ad3b
000000e0: 2930 afbd b5c2 423e 15b8 a3be 9d14 dfbc
000000f0: 9f46 ef3b 6c67 17be 35e3 acbd a0ce bcbe
00000100: 17c7 52bd 2af8 443d d8a5 e7bd e147 d13d
00000110: 4be8 87be 1298 073e c22c 6f3e f84a c83d
00000120: 02ee 90bd fd61 51bd bf30 97bd cba3 51bd
00000130: e311 0fbe f78c 2b3e 03a0 52bd 4ce7 b43d
00000140: 09ce 3a3d 6ee8 d2bd 7f66 813c d44d 2c3e
00000150: d262 17be 9029 66bd 5cc9 22be 75bf 8bbc
00000160: e422 4bbc dcce bf3d 18c1 003d ddd9 6dbe
00000170: 5dd5 543c 0880 60bd 5eb8 7b3a c4c5 70bd
00000180: 0731 72bc 5c94 6fbe 6287 293d 205e 6abc
00000190: 5473 bd3d 3b8b c23b 9272 72be 4b23 2bbe
000001a0: 4c1e a4bd fb4c 3dbe 573a 41bd 4fb5 3e3e
000001b0: fe77 303d 43f4 5fbe 16c0 dabd b29c 9dbe
000001c0: 3528 abbd ad81 b6bc 047c 04be 3955 6abd
000001d0: 133e e43c 8cef 103e fb6f d63d 1c58 0ebe
000001e0: c907 b1bd efc3 d1bc 4ea2 8c3c 2be5 913d
000001f0: 2acf 75bc 3b55 abbd 55d7 01be 0d4c e4bc
00000200: 9b5a 09bd aa9a 943c ae83 063e 33f2 123e
00000210: ab99 003d 1bbc b3ba 011c 8fbd bf92 f0bd
00000220: 4132 05bd 0098 acbd bcca 4ebe 4bd3 e73c
00000230: 5b44 0dbe c124 20bd f0e9 00bc 7c6e eebd
00000240: fde3 b73d becc c43c 3c08 f63c 5dbc e13c
00000250: e6bf 74bd 1b76 60be cd9a d2bd 653f 0a3c
00000260: d06a 1bbd f72b 0dbe 5b43 83be 91bb 13be
00000270: 55d5 d33d bcc2 6abd 0994 9f3d 7a0d 283d
00000280: c03e b7bd 789e d43c d5e3 df3d e9a1 4dbd
00000290: 11ed 75bd 9750 41be 173a 10bc d246 9ebd
000002a0: 69b5 cc3d aa1d 023e 7e5f debd 2afa 9fbd
000002b0: ab0f dbbc 5686 693d 4815 c2bd f43f 923d
000002c0: ca3b 013d 5fdf 91bd dbf2 d4bd 10bf 15bd
000002d0: 6a0e 8abd 9666 b7bd 6984 cdbc f761 a3bd
000002e0: 70ce fd3c 2566 8fbd 9477 a03d 6f75 643d
000002f0: 19c2 33bd 9937 c73b e5e2 db3b bb5e 55bd
00000300: fe02 5dbe de5b bdbd af54 b7bd 57fd 063c
00000310: 57a2 8fbd 3090 59bc 95bd 28be 049d bcbd
00000320: 6174 52bd 219e 913d 7ccc 8fbc 9035 ef3d
00000330: cfc5 41bd e126 19be 7ca5 efbd 8389 0b3e
00000340: 7dcd 70bd 8d4b 903d 38c7 aabd d77c 96bd
00000350: 46a4 9bbd c95d c4bd 95a4 8e3d 769a acbd
00000360: fe90 1bbe 67aa f23c d4de 6ebd 1204 31bc
00000370: cbb2 24bd 5ef1 f83d 1bca 0fbe 9563 be3d
00000380: c38f 7ebd 85c5 e6bd 9d4f a73c a1d4 8d3d
00000390: 0a1c 8ebb 028c f13c 1255 bfbd a2b2 40be
000003a0: a8a4 9bbd 4550 e0bd 7b57 66bd f0ac a73d
000003b0: 802a 0d3d 85ad 013e d463 293e 37a9 40bd
000003c0: 16e7 843d 5880 96bd 39a2 41bc 554c 8ebd
000003d0: 364f d2bc 76d9 31bd 496d bc3b 8ffc 96bd
000003e0: af01 993c b1d5 ffbc 2aac 923d 33fd dc3c
000003f0: 753f dd3c 1b0d 70bd 83b7 c2bd 0914 cfbc
-0.029369887 0.09487433 -0.247224 -0.016164554 -0.027592083 -0.07109403 0.04506245 -0.085859716
0.040494032 0.084001005 0.14764746 0.095563315 -0.17194435 -0.023219451 0.045483302 -0.061765727
0.07114933 0.05196074 -0.37600175 0.25347668 0.107416235 -0.05364486 -0.0056708576 -0.09453606
-0.127113 -0.02153845 0.04103693 0.1420067 0.062283337 -0.26611885 -0.31623664 0.1130705
-0.045771684 0.18361191 -0.1025197 -0.15125169 -0.0035586928 -0.079613455 0.14155895 0.022758476
0.039800134 -0.018010108 0.16820295 -0.01639846 0.09983811 -0.12097924 -0.02730946 0.092580035
-0.1667189 -0.33980447 -0.0068971934 -0.0828683 -0.22478922 0.17585756 -0.08069886 0.00529034
-0.08554108 0.19019587 -0.3197638 -0.027231509 0.00730212 -0.14785546 -0.08441774 -0.36876392
-0.051459398 0.04808823 -0.11310929 0.10218788 -0.26544413 0.13241604 0.23356918 0.09779924
-0.070766464 -0.05111884 -0.073823445 -0.051181596 -0.13971667 0.16752993 -0.05142213 0.08833179
0.045606647 -0.10298239 0.015795944 0.16826564 -0.1478379 -0.05619198 -0.15897125 -0.017059067
-0.012398455 0.09365627 0.03143415 -0.2322764 0.012990323 -0.0548096 0.0009602363 -0.058782354
-0.014782197 -0.23396438 0.041388877 -0.014304668 0.09250513 0.0059370077 -0.23676518 -0.16712682
-0.08013591 -0.18486397 -0.047174778 0.18623851 0.043083183 -0.21870522 -0.10681169 -0.30783612
-0.08357278 -0.022278631 -0.12937933 -0.05721018 0.02786163 0.1415388 0.10470577 -0.13900799
-0.08644063 -0.025606124 0.017167237 0.071237884 -0.015003005 -0.08365866 -0.12679799 -0.027868295
-0.033533674 0.018140156 0.1313617 0.14350204 0.03139655 -0.0013712676 -0.06987763 -0.117467396
-0.03251863 -0.08427429 -0.20194525 0.028298995 -0.13795607 -0.03909755 -0.007868275 -0.11642167
0.08979032 0.02402341 0.030033223 0.027555639 -0.05975332 -0.21920054 -0.10283432 0.008437966
-0.03794366 -0.13786303 -0.25637326 -0.1442702 0.10343424 -0.05731462 0.07791907 0.041028477
-0.089475155 0.02595447 0.109321274 -0.050203238 -0.060040537 -0.18878399 -0.008802912 -0.07728352
0.09995539 0.12706628 -0.108580574 -0.07811387 -0.02674087 0.05701288 -0.09476715 0.07141104
0.03155116 -0.07122683 -0.103978835 -0.036559165 -0.067410305 -0.089551136 -0.025087552 -0.0797767
0.030982226 -0.070019044 0.07835308 0.055776056 -0.043886278 0.006079626 0.0067103975 -0.052092295
-0.21583173 -0.09246038 -0.08951699 0.008239112 -0.07013386 -0.013279006 -0.1647857 -0.09209636
-0.05138052 0.07110239 -0.01755356 0.11680138 -0.047307786 -0.14956237 -0.117014855 0.13626675
-0.05878972 0.0704566 -0.08338779 -0.0734803 -0.07599692 -0.095882006 0.06964985 -0.084278986
-0.15192029 0.02962227 -0.058317974 -0.010804193 -0.040209573 0.12155412 -0.14041941 0.092963375
-0.06214882 -0.112681426 0.020423705 0.06925321 -0.0043368386 0.029485706 -0.09342398 -0.18818143
-0.07599765 -0.1095281 -0.05623577 0.08187282 0.03446436 0.12663849 0.16541988 -0.047036376
0.06489389 -0.073486984 -0.011818462 -0.06948153 -0.025672536 -0.043420278 0.0057503325 -0.073723905
0.01867756 -0.031229826 0.07161744 0.026976204 0.027007798 -0.05860625 -0.09507658 -0.025278108

fc2.bias f4 [43]
00000000: e1bc 11bd 5dc1 d2bc 3638 e83c 6057 223e
00000010: 8dd5 0f3c ccf0 4dbd 6991 fb3b 930e 44bd
00000020: 480c 8239 6dc1 c2bb 97f1 3abe f81f 75be
00000030: 623e 63bd 56d1 a83d 5191 afbd 38af 12be
00000040: faff edbd 83c8 53bd 25f2 bc3d d57f 12bc
00000050: c8bc d33b 858b 0abc 58f6 c0bd e2d9 85bc
00000060: ec61 743d 3f28 573d 2f1b cabd cb5c 753c
00000070: 3e24 97bc e107 16bd 5e13 ae3b 01c8 f23d
00000080: fe40 2e3e 5343 0dbd 6997 3fbd 1922 c5bb
00000090: 0618 09bd d8f3 9ebd 061e acbc 03bb 6c3c
000000a0: bb29 c33d c2dc 18be a8e2 e4bc
-0.03558052 -0.025726968 0.028347116 0.15853643 0.008778942 -0.05027847 0.0076772464 -0.04786546
0.00024804682 -0.0059434683 -0.18256222 -0.23937976 -0.055479415 0.08243053 -0.08572639 -0.14324653
-0.11621089 -0.051704895 0.09225873 -0.00894161 0.0064617135 -0.008456116 -0.09421986 -0.016339246
0.059663698 0.052528616 -0.09868466 0.014975737 -0.018449899 -0.036628608 0.0053123673 0.11854554
0.1701698 -0.034488034 -0.046775255 -0.0060160276 -0.033470176 -0.07761353 -0.02101041 0.014448884
0.09529444 -0.14927962 -0.02794011
