models/LeNet.pth (torch, 262620 bytes, 10 tensors)

conv1.weight f4 [6, 3, 5, 5]
-0.16537228 -0.3493859 -0.30681983 -0.4591535 -0.43922904 -0.32532477 -0.30223733 0.013072581
-0.04043451 -0.17709966 -0.40655464 0.03934755 0.23828003 0.12889522 0.086283326 -0.09209245
0.13853288 0.2553024 0.14752156 0.03635206 -0.29288268 0.019645967 0.16670743 0.039325833
0.013637438 -0.29832405 -0.44371915 -0.33907074 -0.2599797 -0.2810714 -0.37104815 -0.033003982
0.23412469 0.2675212 0.03286033 -0.3136039 0.09844632 0.46522513 0.33371928 0.06098648
-0.13831896 0.2353798 0.43404153 0.33734024 0.22344914 -0.0431125 0.3425187 0.2847302
0.2803376 0.1258696 -0.16925822 -0.3753241 -0.21986449 -0.34753937 -0.23119377 -0.17963946
-0.09708798 0.097081006 0.08084279 -0.046039026 -0.17867023 0.27713275 0.36748675 0.24294738
0.12819302 0.013890869 0.37135068 0.3726092 0.27859113 0.021481873 -0.08154058 0.27559942
0.14610888 0.068814345 -0.076633915 0.065621175 0.19226715 0.3293546 0.056185916 -0.20927796
0.15851125 0.21321909 0.15315895 -0.135092 -0.35421392 -0.008653568 0.07661467 0.061158467
-0.30578953 -0.26135957 -0.08761607 -0.037155863 -0.29422528 -0.36687845 -0.14911743 -0.15740336
-0.24455273 -0.39479077 -0.18075117 -0.17668957 0.17377786 0.2467188 0.2638125 0.11216484
-0.18377933 0.0824135 0.25833386 0.17125064 0.14353614 -0.24924922 0.17382883 0.12798977
0.14664117 0.04314736 -0.12864518 0.054071855 0.067772664 0.12519252 -0.09323705 0.10189369
-0.05481043 -0.17220034 -0.11089932 -0.04961603 -0.1679455 0.009137465 0.04376074 0.19886056
0.039404016 -0.1953739 -0.032356426 0.093905486 0.15724109 0.109212734 -0.016189586 0.08440312
0.09824133 0.1420649 -0.022789141 0.11383312 0.013445137 0.005502886 0.12043581 -0.03866636
0.22654569 0.077215455 -0.09658502 -0.18551321 0.0088602435 0.14014505 0.055781566 0.12555575
-0.014902015 -0.058351174 0.09830749 0.1079031 0.12454888 0.061972994 0.02774901 -0.020272397
-0.011178169 0.07286305 0.15990902 0.0049623116 0.022717947 -0.2344433 0.03534132 0.16589761
0.091178186 0.10317644 -0.12774993 -0.02898529 0.07304356 0.014197983 0.1576706 0.07129672
0.27007362 0.065777525 -0.09049917 0.10359974 -0.07747617 0.19581544 0.09710795 -0.10930854
-0.104463086 -0.11661753 -0.106566645 0.13531408 -0.07750192 -0.05419454 -0.3144175 -0.21773666
0.015352828 0.1305673 -0.005667712 -0.26139304 -0.26404804 0.14580154 0.16038123 0.25362423
0.19338773 0.123329505 -0.027264582 -0.13062635 -0.09267769 -0.038408797 0.2610259 0.10615563
-0.21247426 -0.016599318 -0.25856075 0.10599758 -0.0060925544 0.02553448 -0.18901607 -0.2776884
-0.32373908 0.05703732 0.14701204 -0.030210799 -0.32425523 -0.2743172 0.07012915 0.14817733
0.25496587 0.11307707 0.10876643 0.01864531 0.07889996 0.18217745 0.08454836 0.08317906
0.06680884 -0.10742555 0.13580316 -0.024011482 -0.026034625 0.030192947 -0.002278337 -0.053364184
0.067265205 -0.021218995 -0.06778612 0.088522404 0.020090798 0.14041506 0.14833677 0.028025325
0.153762 0.12453734 0.06712219 -0.10112141 0.08406277 -0.06772692 0.053949084 -0.063836366
00000000: 5a57 29be b5e2 b2be 7d17 9dbe 2b16 ebbe
00000010: a1e2 e0be f890 a6be dabe 9abe 612e 563c
00000020: a89e 25bd 9d59 35be ee27 d0be e62a 213d
00000030: aeff 733e 1cfd 033e 50b5 b03d f79a bcbd
00000040: 90db 0d3e ffb6 823e e40f 173e e6e5 143d
00000050: b8f4 95be 94f0 a03c 5ab5 2a3e 2014 213d
00000060: 906f 5f3c eebd 98be 282f e3be ae9a adbe
00000070: 0f1c 85be 97e8 8fbe 06fa bdbe 2f2f 07bd
00000080: 62be 6f3e 8af8 883e 8e98 063d b190 a0be
00000090: 399e c93d fd31 ee3e 41dd aa3e f6cc 793d
000000a0: 7ca3 0dbe 6707 713e b13a de3e dcb7 ac3e
000000b0: dacf 643e bc96 30bd 9c5e af3e 28c8 913e
000000c0: 6988 8f3e f6e3 003e 0752 2dbe 7b2a c0be
000000d0: 2824 61be aef0 b1be 0fbe 6cbe 68f3 37be
000000e0: 10d6 c6bd 68d2 c63d e890 a53d 6b93 3cbd
000000f0: 54f5 36be 58e4 8d3e 3927 bc3e 33c7 783e
00000100: 0845 033e 8796 633c ad21 be3e a2c6 be3e
00000110: 7fa3 8e3e c1fa af3c bffe a6bd 5e1b 8d3e
00000120: 919d 153e 89ee 8c3d 3ef2 9cbd 6564 863d
00000130: aee1 443e 2ba1 a83e 3423 663d f64c 56be
00000140: c650 223e 1b56 5a3e b3d5 1c3e 8f55 0abe
00000150: 875b b5be b2c7 0dbc 27e8 9c3d 4d81 7a3d
00000160: 7290 9cbe ecd0 85be 0e70 b3bd bf30 18bd
00000170: b2a4 96be 7ed7 bbbe 3db2 18be 592e 21be
00000180: 086c 7abe 0422 cabe d616 39be 1cee 34be
00000190: d3f2 313e daa3 7c3e 6f12 873e aeb6 e53d
000001a0: a630 3cbe 69c8 a83d 5644 843e 545c 2f3e
000001b0: 23fb 123e 303b 7fbe 2f00 323e c00f 033e
000001c0: 1a29 163e 49bb 303d 90bb 03be 737a 5d3d
000001d0: 65cc 8a3d 7832 003e 11f3 bebd a4ad d03d
000001e0: e780 60bd 4955 30be 2f1f e3bd 2e3a 4bbd
000001f0: e8f9 2bbe 4eb5 153c 763e 333d 1aa2 4b3e
00000200: 1b66 213d 1810 48be 2c88 04bd 8551 c03d
00000210: cf03 213e edaa df3d 06a0 84bc 8bdb ac3d
00000220: c032 c93d 7679 113e 4bb0 babc 5721 e93d
00000230: fe48 5c3c 8e51 b43b 0da7 f63d 9e60 1ebd
00000240: 98fb 673e 2323 9e3d 5ece c5bd 2df7 3dbe
00000250: 8e2a 113c 2f82 0f3e 367b 643d b091 003e
00000260: 9527 74bc a401 6fbd 7055 c93d 4dfc dc3d
00000270: 7c13 ff3d 65d7 7d3d e451 e33c 4c12 a6bc
00000280: a424 37bc 3939 953d 31bf 233e e39a a23b
00000290: fd1a ba3c e811 70be 0fc2 103d 10e1 293e
000002a0: a1bb ba3d 2b4e d33d e1d0 02be 8f72 edbc
000002b0: dd97 953d a89e 683c 6774 213e 0404 923d
000002c0: 1747 8a3e 5eb6 863d a157 b9bd 1a2c d43d
000002d0: d4ab 9ebd d883 483e 88e0 c63d 28dd dfbd
000002e0: bef0 d5bd 2cd5 eebd 9d3f dabd c68f 0a3e
000002f0: 54b9 9ebd 18fb 5dbd 55fb a0be 5cf6 5ebe
00000300: 6e8a 7b3c 6fb3 053e 37b8 b9bb 4fd5 85be
00000310: 4e31 87be 004d 153e fa3a 243e 09db 813e
00000320: 6f07 463e 2e94 fc3d f959 dfbc eac2 05be
00000330: cdcd bdbd 8b52 1dbd 30a5 853e 1f68 d93d
00000340: da92 59be 4bfb 87bc 1362 84be 4215 d93d
00000350: 0da4 c7bb b02d d13c 6e8d 41be 2d2d 8ebe
00000360: 21c1 a5be f79f 693d 538a 163e a37c f7bc
00000370: c804 a6be 4e73 8cbe df9f 8f3d ccbb 173e
00000380: e38a 823e f394 e73d efc0 de3d 0dbe 983c
00000390: 4d96 a13d ba8c 3a3e b127 ad3d c859 aa3d
000003a0: 13d3 883d ed01 dcbd fc0f 0b3e bab3 c4bc
000003b0: 9146 d5bc 3357 f73c 2750 15bb 6794 5abd
000003c0: 57c2 893d 75d3 adbc 73d3 8abd 3c4b b53d
000003d0: 7595 a43c f7c8 0f3e 98e5 173e 5e95 e53c
000003e0: c973 1d3e 6f0d ff3d 5c77 893d be18 cfbd
000003f0: 1a29 ac3d 69b4 8abd b7f9 5c3d a4bc 82bd

conv1.bias f4 [6]
0.25613335 0.05086749 0.09745653 -0.36805388 -0.022931281 -0.05338672
00000000: e923 833e 6e5a 503d 4a97 c73d 8f71 bcbe
00000010: 62da bbbc 09ac 5abd

conv2.weight f4 [16, 6, 5, 5]
0.07635297 0.04592965 0.26981786 0.1245585 0.04989931 0.12141387 -0.06537493 0.19368501
0.18573684 -0.18945237 0.032271016 -0.09137368 -0.14984475 -0.19680616 -0.17595464 -0.10477345
-0.35929865 -0.3768643 -0.06824245 -0.021616882 -0.027728701 -0.13543272 -0.15869837 -0.07304114
0.046099268 0.19388445 -0.1413473 -0.11672022 -0.35276502 -0.14776652 0.23131216 -0.13791153
-0.048062146 -0.02414209 -0.14393793 0.07795654 0.10921323 -0.021328213 0.056929152 0.0862666
-0.10464469 -0.06672049 -0.14763178 -0.15080811 0.013302651 0.02830793 -0.047343742 -0.29453665
-0.49612218 -0.18810281 0.03338401 -0.012322435 0.17771184 -0.04038789 -0.18376312 0.061647557
0.042179856 -0.14957523 0.20974872 -0.09648133 -0.10939359 -0.057460327 -0.08538055 0.3324241
0.16080825 -0.22360745 -0.08373726 0.26936236 0.09454623 0.14393973 -0.060820743 -0.08020067
-0.021863941 -0.09488214 -0.12913968 -0.07425054 -0.0035745918 -0.095202334 -0.03381497 -0.02156608
-0.032070875 0.01196881 -0.06058117 -0.15044835 -0.20296904 0.049187638 0.035555173 0.067589834
0.04215676 0.04500993 -0.08762514 0.06763823 0.20846152 0.21287733 0.045352366 0.0041683423
0.025587795 0.14958002 0.15888153 0.07702063 -0.12172869 -0.0026021341 -0.112970725 -0.03468619
0.106035896 -0.14867292 -0.0034903158 -0.02020091 -0.1294094 0.12409786 -0.1856113 0.01362865
0.14447865 0.042383976 -0.04711393 0.028964235 0.11781338 0.11176694 0.055067897 -0.03436941
-0.039198335 0.14254414 -0.014726267 0.0072075604 -0.031331588 -0.06722161 -0.15139562 -0.12905239
0.21584848 0.14896685 -0.03225479 -0.018376358 -0.045617145 -0.028908242 -0.04196908 0.11976354
-0.08611447 -0.005295398 -0.033155963 -0.0424371 -0.034149908 0.023616347 -0.062425595 0.0519471
-0.066026255 -0.0908203 -0.0013073921 0.019595306 -0.005798648 0.022213457 0.0030018329 -0.022095019
0.22556606 -0.20068914 -0.18066956 0.19291809 -0.006706607 -0.103566945 -0.3377723 -0.072548844
0.2725309 -0.31887567 -0.58314544 -0.16276106 0.1274856 -0.11291173 -0.5155267 -0.12556127
0.1695632 0.22633372 -0.17306824 -0.19717616 0.03215293 0.068252504 -0.124401934 -0.058855355
-0.23528637 -0.14593135 0.08108735 0.07650536 -0.22044072 -0.116286606 0.18121973 0.075868346
-0.02804491 0.004133718 0.22615565 0.26070085 0.12583204 -0.19538078 0.055950966 0.25922215
0.10628265 -0.4587791 -0.19547053 -0.19038212 0.07296933 -0.47355524 -0.48202932 0.10264356
0.019038387 -0.031821985 0.017028904 0.17486061 0.2035071 -0.06434426 -0.20200317 -0.15899459
0.20294039 0.22999409 -0.0017476588 -0.3181318 -0.39385054 0.17407034 0.2079829 0.13271499
0.006059751 -0.18095674 -0.199356 -0.10945741 0.11199833 0.1429919 0.2352745 -0.18507235
0.11273446 -0.1290664 -0.2827222 -0.22420742 0.05101678 0.18896994 -0.26470327 -0.37853488
-0.1602037 0.11419928 0.09418933 -0.21627462 -0.15109561 0.14818545 0.21813568 0.09713657
-0.017488917 0.07101697 0.15318234 0.16820467 -0.06874671 0.185625 0.19452745 0.29577807
0.074542485 0.10065249 0.08992041 -0.19885449 -0.004565751 0.12547635 0.23423368 -0.120740876
00000000: f25e 9c3d bb20 3c3d 9125 8a3e 8718 ff3d
00000010: 3863 4c3d d6a7 f83d 4be3 85bd 5d55 463e
00000020: cc31 3e3e cdff 41be 9d2e 043d 2022 bbbd
00000030: e770 19be 8e87 49be 742d 34be 7693 d6bd
00000040: fef5 b7be 5cf4 c0be b3c2 8bbd e315 b1bc
00000050: 4d27 e3bc e0ae 0abe d381 22be 9896 95bd
00000060: 96d2 3c3d a589 463e 59bd 10be 030b efbd
00000070: 9e9d b4be 1b50 17be 18dd 6c3e ae38 0dbe
00000080: d0dc 44bd a2c5 c5bc 7764 13be aea7 9f3d
00000090: 30ab df3d 81b8 aebc 8b2e 693d 8bac b03d
000000a0: f54f d6bd c1a4 88bd c92c 17be 716d 1abe
000000b0: 5df3 593c 08e6 e73c 83eb 41bd 82cd 96be
000000c0: ba03 febe 069e 40be acbd 083d 0ae4 49bc
000000d0: 18fa 353e c66d 25bd 662c 3cbe 2682 7c3d
000000e0: c9c4 2c3d 402a 19be 5ec8 563e 0198 c5bd
000000f0: bf09 e0bd 855b 6bbd ffdb aebd 7e33 aa3e
00000100: ebaa 243e 5af9 64be 717e abbd dde9 893e
00000110: 74a1 c13d f064 133e 2c1f 79bd 4040 a4bd
00000120: 021c b3bc 9151 c2bd 313d 04be ab10 98bd
00000130: b343 6abb 71f9 c2bd 9181 0abd 59ab b0bc
00000140: c05c 03bd d418 443c f623 78bd 220f 1abe
00000150: 1ed7 4fbe fa78 493d 4da2 113d 8a6c 8a3d
00000160: 91ac 2c3d 555c 383d cf74 b3bd ea85 8a3d
00000170: f076 553e 84fc 593e 67c3 393d 9796 883b
00000180: 7f9d d13c 812b 193e d7b1 223e febc 9d3d
00000190: e44c f9bd 9188 2abb 325d e7bd 1b13 0ebd
000001a0: 5929 d93d b73d 18be c8bd 64bb 617c a5bc
000001b0: e683 04be 0527 fe3d e310 3ebe b44a 5f3c
000001c0: 36f2 133e d29a 2d3d 89fa 40bd 6746 ed3c
000001d0: 2448 f13d 11e6 e43d e08e 613d f0c6 0cbd
000001e0: 6f8e 20bd 17f7 113e 7146 71bc 662d ec3b
000001f0: 8d55 00bd 7cab 89bd 7407 1bbe 4f26 04be
00000200: 6207 5d3e c48a 183e 991d 04bd 048a 96bc
00000210: 0bd9 3abd fad0 ecbc c5e7 2bbd 9646 f53d
00000220: c95c b0bd 0585 adbb 8cce 07bd 86d2 2dbd
00000230: c6e0 0bbd 1277 c13c fbb1 7fbd 7bc6 543d
00000240: c638 87bd feff b9bd cd5c abba 5686 a03c
00000250: 9602 bebb fff8 b53c 66ba 443b 9d00 b5bc
00000260: cafa 663e 7481 4dbe 7101 39be 528c 453e
00000270: 19c3 dbbb e81a d4bd 7ef0 acbe 7d94 94bd
00000280: 2c89 8b3e ac43 a3be 0549 15bf d6aa 26be
00000290: 968b 023e 443e e7bd 8ff9 03bf 2293 00be
000002a0: faa1 2d3e 07c4 673e cd38 31be 8ce8 49be
000002b0: cab2 033d f8c7 8b3d 71c6 febd 5012 71bd
000002c0: e9ee 70be 076f 15be 2011 a63d d8ae 9c3d
000002d0: 36bb 61be ac27 eebd aa91 393e dd60 9b3d
000002e0: 70be e5bc 2474 873b 5995 673e 957a 853e
000002f0: 1dda 003e e611 48be d72c 653d c4b8 843e
00000300: b8aa d93d 18e5 eabe 6d29 48be 88f3 42be
00000310: f270 953d d575 f2be 8ccc f6be c936 d23d
00000320: 64f6 9b3c c557 02bd 3380 8b3c a90e 333e
00000330: 2a64 503e ecc6 83bd ebd9 4ebe 7acf 22be
00000340: 9bcf 4f3e 9283 6b3e b311 e5ba 2ce2 a2be
00000350: c7a6 c9be 7f3f 323e 78f9 543e 70e6 073e
00000360: e090 c63b b94c 39be fb23 4cbe 352b e0bd
00000370: 615f e53d 786c 123e cceb 703e 9b83 3dbe
00000380: 53e1 e63d fb29 04be f7c0 90be a196 65be
00000390: f9f6 503d 5681 413e 3087 87be 53cf c1be
000003a0: 700c 24be 50e1 e93d 56e6 c03d 1877 5dbe
000003b0: cfb8 1abe edbd 173e f65e 5f3e 8aef c63d
000003c0: eb44 8fbc 5871 913d d5db 1c3e d83d 2c3e
000003d0: 13cb 8cbd 7b14 3e3e 3432 473e 3970 973e
000003e0: bba9 983d e522 ce3d 3128 b83d 83a0 4bbe
000003f0: 4c9c 95bb df7c 003e f4da 6f3e fe46 f7bd

conv2.bias f4 [16]
0.03507502 0.17598072 0.14649585 0.30952704 0.19579315 0.0704744 0.15599737 0.20943949
-0.0019336238 0.2548245 0.13857862 0.26262528 -0.022746328 0.13976817 0.17907247 0.30371395
00000000: d3aa 0f3d 4a34 343e 0203 163e 547a 9e3e
00000010: 007e 483e e254 903d c6bd 1f3e 4e77 563e
00000020: a671 fdba 5b78 823e 8ee7 0d3e d276 863e
00000030: 8256 babc 631f 0f3e c65e 373e 6580 9b3e

fc1.weight f4 [120, 400]
0.00846365 0.13953172 -0.10554855 -0.1786139 -0.06787245 0.038724773 -0.003529929 0.25321525
0.0878348 0.061940677 -0.10965819 0.041900687 0.21314186 0.108047366 -0.066485316 0.007381994
0.18219526 -0.20878834 -0.25559172 -0.31946537 -0.11781692 -0.20338625 -0.09735852 0.040746864
-0.14787781 -0.020891652 0.008590416 -0.05479258 0.01049813 -0.09404377 0.042203713 0.06075756
0.017050529 0.087165065 -0.09813567 -0.030562881 0.018963538 0.013408798 -0.076820545 -0.1196603
0.032192886 0.18588893 0.26344904 -0.15922673 -0.030320136 0.07254022 -0.004002692 0.014574846
-0.05847381 -0.00027922523 0.16113009 0.005640543 -0.067255884 0.07912726 -0.049942598 0.057534683
0.036139734 0.072087005 0.09326869 1.6444967e-05 0.007063081 0.15244685 0.045515288 -0.13458227
-0.058405146 0.14113875 0.069348924 0.050945662 -0.05861411 -0.24835372 -0.13521618 0.07712026
-0.006368827 0.20352975 0.0038839327 -0.09322301 0.059532776 -0.038295288 0.03338429 -0.036972255
-0.0020610378 0.037479118 0.120235294 -0.09219318 0.09482937 -0.07813397 0.15062578 0.051067274
-0.40399408 0.12794378 0.022132684 -0.06719244 -0.3620676 -0.22312333 -0.018709358 -0.1738149
0.10725454 0.099242404 0.15878193 -0.037833203 -0.02004893 0.022067938 -0.11054142 0.010052803
0.07465829 -0.028907983 0.0065164547 0.18601842 0.014030576 0.20618968 -0.03698768 0.21448088
0.14375842 -0.061655916 -0.13163483 0.022477688 0.006564819 -0.12973604 -0.15744449 -0.09463095
-0.1273356 -0.15783256 -0.003552751 0.13799004 0.04718804 -0.033086307 -0.080676295 0.08286905
-0.21257426 -0.08654931 -0.09593819 -0.16977367 0.0018925011 -0.040064905 -0.0641922 -0.16600202
-0.1673379 -0.006319823 0.3643966 -0.15593453 0.0035082311 0.008263286 -0.19642931 -0.036569934
-0.26752362 -0.018548835 -0.07969801 0.00023139086 -0.11283324 -0.19254427 -0.017898984 0.12188694
0.041178595 0.0970164 0.0035498636 -0.08620782 -0.16061509 0.0008682473 0.08513745 0.04877284
0.092506014 0.08177892 -0.12870643 0.12022599 0.07671156 0.2114068 0.13012117 -0.03237531
0.29302242 0.09103583 -0.08460598 0.044660725 -0.0870301 -0.072120674 -0.02263151 0.045001045
-0.16630565 -0.22517894 -0.1615328 -0.18979834 -0.06426389 0.100457706 -0.03375631 0.19391999
0.035141017 -0.028126232 0.12320557 -0.06152661 0.21093157 0.13381308 -0.112295605 0.09610911
-0.04610071 -0.012224738 -0.06716768 -0.09776506 0.065063454 -0.0915774 -0.02807393 -0.055435304
-0.007060366 -0.15200458 -0.17362219 -0.25345138 -0.16765381 -0.15148023 -0.1405758 0.038869515
-0.16171741 -0.18182431 -0.17436859 0.011525192 -0.27997774 -0.32821527 -0.29899034 -0.293273
-0.4484807 -0.21475117 -0.30235156 -0.21824269 -0.22261328 -0.3270137 -0.17743115 -0.17525744
-0.08488655 0.083474964 0.06171185 -0.041248254 -0.0023385927 0.055410977 0.06937543 -0.019645972
-0.013077502 -0.057675287 -0.025405854 -0.054396633 -0.08820396 0.04451811 -0.074504845 -0.0537174
0.03669959 0.08760167 0.30541134 0.14623043 -0.14352758 0.102968715 0.13484775 0.16787025
0.315866 0.2717809 0.07645242 0.10721636 0.080346406 0.101892926 -0.16764857 -0.049933143
00000000: 1fab 0a3c 67e1 0e3e d729 d8bd 90e6 36be
00000010: b600 8bbd de9d 1e3d 6256 67bb 6ea5 813e
00000020: bbe2 b33d 82b5 7d3d 7994 e0bd 0ea0 2b3d
00000030: dc41 5a3e f047 dd3d 7429 88bd a7e4 f13b
00000040: 6591 3a3e 9ccc 55be ebdc 82be f790 a3be
00000050: ff49 f1bd 7c44 50be e763 c7bd 2fe6 263d
00000060: 486d 17be f824 abbc d1be 0c3c 2f6e 60bd
00000070: 5900 2c3c 059a c0bd cddd 2c3d ebdc 783d
00000080: 8dad 8b3c 9983 b23d 5bfb c8bd 025f fabc
00000090: 6c59 9b3c 93b0 5b3c 1754 9dbd 7610 f5bd
000000a0: b0dc 033d ab59 3e3e cbe2 863e 550c 23be
000000b0: ef61 f8bc f88f 943d 0429 83bb 56cb 6e3c
000000c0: 3c82 6fbd fa64 92b9 49ff 243e 4ed4 b83b
000000d0: 74bd 89bd 790d a23d 9c90 4cbd 7da9 6b3d
000000e0: 4207 143d 5aa2 933d a803 bf3d 4cf3 8937
000000f0: 6b71 e73b 071b 1c3e 3d6e 3a3d efcf 09be
00000100: 3c3a 6fbd ad86 103e cf06 8e3d 66ac 503d
00000110: 5915 70bd 7050 7ebe 1c76 0abe 3af1 9d3d
00000120: 98b1 d0bb 1a6a 503e 9489 7e3b b5eb bebd
00000130: a4d8 733d 85db 1cbd f7bd 083d 3870 17bd
00000140: 7a12 07bb b483 193d ec3d f63d c7cf bcbd
00000150: e735 c23d b404 a0bd a53d 1a3e eb2b 513d
00000160: 50d8 cebe b203 033e 9a4f b53c 319c 89bd
00000170: ed60 b9be 717a 64be 5e44 99bc 88fc 31be
00000180: 45a8 db3d 9a3f cb3d bb97 223e fdf6 1abd
00000190: a73d a4bc d2c7 b43c 8a63 e2bd 83b4 243c
000001a0: 72e6 983d 6fd0 ecbc fc87 d53b 9d7b 3e3e
000001b0: 80e0 653c 6323 533e 6580 17bd e0a0 5b3e
000001c0: 6835 133e ea8a 7cbd 48cb 06be 2123 b83c
000001d0: b11d d73b 86d9 04be 2139 21be dfcd c1bd
000001e0: 4364 02be dc9e 21be 45d5 68bb 434d 0d3e
000001f0: 3f48 413d 8285 07bd 9d39 a5bd 40b7 a93d
00000200: 11ad 59be c440 b1bd 3e7b c4bd 26d9 2dbe
00000210: cd0d f83a 191b 24bd 3377 83bd 6ffc 29be
00000220: a05a 2bbe 8516 cfbb 3192 ba3e 4dad 1fbe
00000230: 5aea 653b bc62 073c c424 49be 5bca 15bd
00000240: dbf8 88be baf3 97bc b638 a3bd 83a1 7239
00000250: 1d15 e7bd 532a 45be e4a0 92bc dc9f f93d
00000260: e3aa 283d 89b0 c63d d4a4 683b ba8d b0bd
00000270: 4878 24be 179b 633a 8b5c ae3d 08c6 473d
00000280: cb73 bd3d b57b a73d 9ecb 03be 0b39 f63d
00000290: f31a 9d3d 067b 583e 7c3e 053e f99b 04bd
000002a0: 0907 963e fe70 ba3d e645 adbd 2aee 363d
000002b0: d63c b2bd 01b4 93bd b765 b9bc 0453 383d
000002c0: 074c 2abe 4f95 66be db68 25be 7f5a 42be
000002d0: c99c 83bd c5bc cd3d 0e44 0abd f692 463e
000002e0: 07f0 0f3d fc68 e6bc 3453 fc3d 5403 7cbd
000002f0: 72fe 573e 4c06 093e 3dfb e5bd dad4 c43d
00000300: 19d4 3cbd 444a 48bc 358f 89bd 0c39 c8bd
00000310: fd3f 853d ef8c bbbd 4cfb e5bc 2110 63bd
00000320: a55a e7bb 17a7 1bbe 04ca 31be 61c4 81be
00000330: 71ad 2bbe a21d 1bbe 1af3 0fbe a435 1f3d
00000340: 4099 25be 2730 3abe ae8d 32be 29d4 3c3c
00000350: 3e59 8fbe d50b a8be 4315 99be e127 96be
00000360: 439f e5be bbe7 5bbe d3cd 9abe 037b 5fbe
00000370: bcf4 63be 576e a7be 83b0 35be b076 33be
00000380: 00d9 adbd ecf4 aa3d 91c5 7c3d eef3 28bd
00000390: 1343 19bb 9ff6 623d b514 8e3d 97f0 a0bc
000003a0: 0543 56bc ec3c 6cbd f01f d0bc 01cf 5ebd
000003b0: 47a4 b4bd 9f58 363d ff95 98bd c706 5cbd
000003c0: 4f52 163d 8168 b33d e05e 9c3e 6ebd 153e
000003d0: e5f8 12be 43e1 d23d 8715 0a3e 2ee6 2b3e
000003e0: 30b9 a13e de26 8b3e 1693 9c3d 4094 db3d
000003f0: a88c a43d 3dad d03d 11ac 2bbe b286 4cbd

fc1.bias f4 [120]
-0.25579566 0.24057302 -0.058439124 0.11593758 0.031715877 0.027761746 -0.04534831 0.037063267
0.04479079 0.12464829 0.012928872 -0.010508127 0.0087977825 -0.0956552 -0.0454527 -0.14183748
-0.08033258 -0.07192591 -0.11373525 -0.04008305 -0.018746551 -0.13781236 -0.037204843 0.048453953
-0.06452513 0.19865298 0.15860231 0.15626022 -0.039272178 0.026149925 0.20175557 -0.09709408
0.024858043 -0.05937959 0.024146026 0.12012303 -0.02398802 0.16256934 -0.013452684 0.20658809
-0.023564212 0.044331286 0.09440255 -0.02288081 -0.097640805 -0.016472368 -0.007079479 0.014527625
-0.054314684 -0.026103668 0.053801563 0.025209906 -0.0028992463 -0.012574872 0.12389484 -0.060442913
-0.07036447 0.035745367 0.03155959 0.15312317 -0.031964142 0.019388383 0.017522682 -0.0074298815
0.012483232 0.04567857 -0.07651489 0.0075406805 0.15230356 0.15255347 0.115217045 0.0035349645
-0.03345867 0.12542377 0.079168245 0.20490468 0.2508955 -0.07117494 -0.10103282 -0.019679902
0.24590859 -0.12502688 -0.0005246476 0.10511557 0.22946022 -0.016868511 0.1386322 -0.051153604
-0.052490197 0.04375122 -0.00010294882 -0.06440233 -0.10577275 -0.09567078 0.20924819 -0.06199491
0.022282382 -0.07100789 0.13495114 0.13399205 -0.05069918 0.15004581 -0.017251333 0.17000426
-0.16848123 0.32691514 -0.09371174 0.11084637 -0.039054018 -0.0056179482 -0.048686005 0.013257976
0.024284407 -0.03284751 0.29041547 0.060026333 -0.050568316 -0.09198704 0.16487075 0.017306332
00000000: a6f7 82be c658 763e dd5d 6fbd af70 ed3d
00000010: 82e8 013d 9a6c e33c 26bf 39bd a7cf 173d
00000020: 8c76 373d 9a47 ff3d 9fd3 533c 472a 2cbc
00000030: 9324 103c e0e6 c3bd 9c2c 3abd d83d 11be
00000040: 6885 a4bd e44d 93bd 07ee e8bd 202e 24bd
00000050: 5e92 99bc af1e 0dbe 1b64 18bd a777 463d
00000060: c025 84bd b06b 4b3e a568 223e ae02 203e
00000070: dddb 20bd 5e38 d63c 0399 4e3e 43d9 c6bd
00000080: 18a3 cb3c 0338 73bd e3cd c53c 1003 f63d
00000090: 8682 c4bc 9478 263e a568 5cbc d48b 533e
000000a0: bc09 c1bc b994 353d 2056 c13d 8970 bbbc
000000b0: e7f7 c7bd 0ff1 86bc f9fa e7bb 4705 6e3c
000000c0: 1379 5ebd 5cd7 d5bc 075f 5c3d 0185 ce3c
000000d0: 4801 3ebb d606 4ebc 94bc fd3d fd92 77bd
000000e0: 3f1b 90bd bc69 123d a144 013d 52cc 1c3e
000000f0: d5ec 02bd 63d4 9e3c ba8b 8f3c 5d76 f3bb
00000100: 7886 4c3c 7419 3b3d d7b3 9cbd d017 f73b
00000110: 77f5 1b3e fa36 1c3e eaf6 eb3d ddaa 673b
00000120: f50b 09bd 176f 003e f622 a23d 88d2 513e
00000130: 6075 803e 2bc4 91bd 4cea cebd bf37 a1bc
00000140: 76cf 7b3e 0c07 00be 8188 09ba d546 d73d
00000150: 9ff7 6a3e d52f 8abc 99f5 0d3e 7186 51bd
00000160: f6ff 56bd 7b34 333d 3ae6 d7b8 5ee5 83bd
00000170: 629f d8bd 0bef c3bd 2845 563e 60ee 7dbd
00000180: 8b89 b63c 966c 91bd a230 0a3e 3635 093e
00000190: f2a9 4fbd 9ca5 193e ab52 8dbc 9915 2e3e
000001a0: 5886 2cbe 6c61 a73e f1eb bfbd 6c03 e33d
000001b0: 1bf7 1fbd c416 b8bb fa6a 47bd fb37 593c
000001c0: 18f0 c63c 1c8b 06bd 56b1 943e 2cde 753d
000001d0: b920 4fbd b463 bcbd e1d3 283e 02c6 8d3c

fc2.weight f4 [84, 120]
0.040769026 0.028555015 -0.027518708 0.084566765 0.12786677 0.09076863 0.026141522 0.21742532
-0.14301716 -0.09093289 0.077718 0.069468826 0.007857337 0.14906144 0.033564415 -0.014405813
0.18640916 0.0512286 0.028738258 0.068345994 0.028554376 0.05280167 0.054310963 0.07500734
0.020581063 -0.06122307 -0.054583825 0.06822527 0.08955432 -0.03964846 -0.31833532 0.18381688
0.07515287 0.06522993 -0.050992794 0.07068101 0.05721609 -0.14528032 -0.08953537 0.12330015
0.022418283 -0.036944784 0.040812418 0.15797095 0.12913157 -0.0046222266 0.022140156 0.05509246
-0.0037333146 0.008124557 0.10089098 0.070298076 0.21381785 0.04193627 0.14693947 -0.09071365
0.11155807 0.0073332866 0.07357957 -0.063898705 0.068136506 -0.04629856 0.05952273 0.15864655
-0.008253174 -0.19671233 0.060690388 0.06473899 -0.239726 -0.0048998115 -0.0050260816 0.0007199544
-0.06141964 -0.14361362 0.010380117 0.0062675546 0.06768436 -0.15259583 0.09166102 0.033822127
0.09286916 0.11525123 -0.11206272 0.21708855 -0.17724887 -0.03243624 0.16079387 -0.061638277
0.023788756 -0.34548265 -0.07343359 0.18778557 0.114345595 0.03962896 0.1780496 -0.14579886
-0.014251054 -0.24394046 -0.14562836 -0.013841962 -0.022672623 -0.09089522 -0.042810697 -0.23120107
-0.03363516 -0.120974615 -0.05258155 0.16545473 0.092056565 0.09876263 0.03671796 0.075485714
0.13537107 -0.05235218 -0.19961709 0.1571617 0.008921427 -0.07022066 -0.061231934 -0.02332778
-0.21839698 0.03854359 0.042904515 -0.08876392 -0.1753302 -0.13596661 0.057327744 0.13921748
-0.051587924 -0.03324343 0.015980668 0.016782438 -0.1374167 -0.055361982 -0.03101681 0.022623746
-0.11111293 0.07239941 0.16784038 0.022691127 -0.065849684 0.11451175 0.013488157 0.18055075
-0.07060869 0.15733404 0.1087084 0.11428717 -0.045315962 0.006889309 0.24994531 0.08657657
0.1403259 -0.016743066 -0.06937436 0.08751386 0.0255433 0.12099994 -0.009460421 0.12639344
-0.041247148 -0.16460231 0.02091955 -0.05056876 -0.14600024 0.09086655 -0.035483923 -0.03022102
-0.09356531 0.07020502 0.21395703 0.0024710724 0.06911102 -0.03786322 -0.25549 -0.03385599
0.21283194 -0.2791108 0.06717725 0.1108927 0.019692749 0.0053994185 0.05044053 -0.10096474
0.06439099 0.057948854 -0.13350293 -0.012261788 0.22633816 -0.059606 -0.20225906 0.05970077
-0.072365426 0.12725097 -0.12542033 0.03943887 0.097123355 0.09168263 0.0347488 0.05890668
0.029559584 -0.24824376 -0.023334853 -0.045295484 -0.1646235 0.07383636 -0.14869826 -0.028367152
0.005668032 0.018237516 0.019110199 -0.14605898 0.10620983 0.017869554 0.3024957 0.126763
0.06533272 0.1643335 0.051128183 0.16825865 0.021301823 -0.09504153 -0.056095127 0.24918568
-0.13354698 0.23698252 0.0063543636 0.012900751 0.15974459 0.022466118 -0.01149554 0.049976505
-0.07639813 -0.034015115 0.15457836 -0.17398912 -0.03654255 -0.10394547 0.1777522 -0.068883054
0.1741135 -0.18936111 -0.021118268 0.004715143 0.046027537 0.052142747 0.057388682 0.2198995
0.106183015 0.19497451 0.040179748 0.031037383 0.04943999 -0.19006622 0.11507558 0.19393332
00000000: 6cfd 263d 35ec e93c ea6e e1bc 5731 ad3d
00000010: 82ef 023e e7e4 b93d bf26 d63c bea4 5e3e
00000020: 1773 12be 063b babd 9d2a 9f3d ac45 8e3d
00000030: 0fbc 003c 90a3 183e d77a 093d 5c06 6cbc
00000040: 0be2 3e3e 15d5 513d 7f6c eb3c fcf8 8b3d
00000050: deea e93c 9046 583d 2c75 5e3d 739d 993d
00000060: 9e99 a83c 0bc5 7abd 4a93 5fbd b1b9 8b3d
00000070: 4168 b73d 6c66 22bd d9fc a2be 7e3a 3c3e
00000080: bfe9 993d 4597 853d d2dd 50bd 35c1 903d
00000090: 6b5b 6a3d 5dc4 14be 525e b7bd ca84 fc3d
000000a0: 8ca6 b73c 6a53 17bd ec2a 273d 23c3 213e
000000b0: 113b 043e 0c76 97bb 465f b53c a2a8 613d
000000c0: a0aa 74bb dd1c 053c ee9f ce3d 70f8 8f3d
000000d0: 11f3 5a3e 5ec5 2b3d 4d77 163e 14c8 b9bd
000000e0: 8f78 e43d 114c f03b e3b0 963d 53dd 82bd
000000f0: 278b 8b3d 8fa3 3dbd 1bce 733d 3e74 223e
00000100: 5238 07bc f56e 49be 7c96 783d e095 843d
00000110: bc7a 75be 998e a0bb d4b1 a4bb 52bb 3c3a
00000120: 2993 7bbd 730f 13be 5e11 2a3c 0f60 cd3b
00000130: 199e 8a3d 1542 1cbe c6b8 bb3d 1289 0a3d
00000140: 3032 be3d d608 ec3d 2481 e5bd 764c 5e3e
00000150: ba80 35be dddb 04bd 26a7 243e 6b78 7cbd
00000160: a3e0 c23c 1ae3 b0be 5a64 96bd dc4a 403e
00000170: 062e ea3d fa51 223d a252 363e 4c4c 15be
00000180: 417d 69bc 87cb 79be 9a1f 15be 66c9 62bc
00000190: f0bb b9bc 4627 babd 455a 2fbd f9bf 6cbe
000001a0: 06c5 09bd 8ac1 f7bd c05f 57bd f76c 293e
000001b0: 2788 bc3d 1044 ca3d 9265 163d 4198 9a3d
000001c0: b79e 0a3e 3d6f 56bd 6c68 4cbe ffee 203e
000001d0: 2d2b 123c d9cf 8fbd 56ce 7abd e719 bfbc
000001e0: 75a3 5fbe e2df 1d3d a5bc 2f3d dcc9 b5bd
000001f0: c389 33be d53a 0bbe 7fd0 6a3d 078f 0e3e
00000200: dc4d 53bd 432a 08bd e4e9 823c 537b 893c
00000210: f7b6 0cbe 3fc3 62bd f716 febc 6f55 b93c
00000220: 2d8f e3bd 2446 943d 59de 2b3e bee2 b93c
00000230: 33dc 86bd 2385 ea3d 6efd 5c3c 4ce2 383e
00000240: 4a9b 90bd 2d1c 213e 82a2 de3d 640f ea3d
00000250: 3b9d 39bd b6bf e13b aaf1 7f3e 0f4f b13d
00000260: 98b1 0f3e c128 89bc 2514 8ebd 773a b33d
00000270: 2f40 d13c d1ce f73d e2ff 1abc 486d 013e
00000280: c5f2 28bd 828d 28be 7a5f ab3c 3021 4fbd
00000290: 1681 15be 3e18 ba3d 9757 11bd 1392 f7bc
000002a0: 2b9f bfbd a6c7 8f3d 8d17 5b3e b7f1 213b
000002b0: 148a 8d3d 7716 1bbd 96cf 82be 94ac 0abd
000002c0: 9ef0 593e 9ce7 8ebe 3a94 893d b61b e33d
000002d0: b052 a13c 9bed b03b bb9a 4e3d 9ac6 cebd
000002e0: 6cdf 833d c75b 6d3d feb4 08be abe5 48bc
000002f0: 31c5 673e 6c25 74bd 001d 4fbe cb88 743d
00000300: 5334 94bd 144e 023e 306e 00be a78a 213d
00000310: 9ce8 c63d 1ac4 bb3d c254 0e3d 2248 713d
00000320: f126 f23c 9d33 7ebe bc28 bfbc c287 39bd
00000330: 1093 28be 8437 973d 5b44 18be 3b62 e8bc
00000340: e6ba b93b d866 953c fe8c 9c3c 7c90 15be
00000350: 8a84 d93d 2c63 923c b7e0 9a3e 29ce 013e
00000360: 29cd 853d 0b47 283e c96b 513d ff4b 2c3e
00000370: 2981 ae3c 22a5 c2bd 01c4 65bd 882a 7f3e
00000380: 8ac0 08be 8cab 723e 4438 d03b ac5d 533c
00000390: 1694 233e dd0a b83c ca57 3cbc 2ab4 4c3d
000003a0: 9f76 9cbd 6f53 0bbd ca49 1e3e 342a 32be
000003b0: a4ad 15bd 5de1 d4bd ac04 363e 8f12 8dbd
000003c0: cf4a 323e e1e7 41be 3800 adbc 7c81 9a3b
000003d0: 5f87 3c3d a293 553d 6510 6b3d 562d 613e
000003e0: 7b76 d93d 66a7 473e 8593 243d 1c42 fe3c
000003f0: 9681 4a3d b8a0 42be bfac eb3d 7596 463e

fc2.bias f4 [84]
0.015349433 0.21674208 0.08317086 0.1791795 0.20032199 0.03679393 -0.0035647892 0.15956497
0.04835898 -0.09313229 -0.08320241 -0.046531178 -0.02420779 -0.010380923 0.056310177 -0.03715973
0.040073555 -0.06664425 0.06935657 0.13639425 0.054095916 0.020106683 0.12358061 0.00030438296
-0.049316403 -0.103453204 -0.091296785 0.009921093 -0.048255417 0.14138028 -0.048904303 0.019951072
-0.10591264 -0.020598944 0.012777137 0.13680527 -0.12028796 -0.0021484194 0.019189363 -0.14707364
0.030814711 0.18249787 0.14091946 0.16920827 0.06079975 -0.048069756 0.27675223 0.26850113
0.13107659 0.05109659 0.12574698 0.09288875 0.2553475 0.12582739 -0.06792331 0.01884481
0.23303354 0.06513181 0.012497069 0.18524244 0.017702615 -0.03947204 0.13823265 0.063421585
-0.13595761 0.15055977 0.109511666 0.034606945 -0.035562318 0.04464766 0.008807003 0.047916785
0.16543287 0.213724 0.060544524 0.07540162 -0.09082582 -0.09911696 -0.04533032 5.336756e-05
0.13226289 0.20694095 0.021930613 -0.06229758
00000000: 307c 7b3c a3f1 5d3e 7c55 aa3d d57a 373e
00000010: 3521 4d3e 3bb5 163d 3d9f 69bb 0065 233e
00000020: 1114 463d 24bc bebd 0666 aabd 7a97 3ebd
00000030: 6a4f c6bc bf14 2abc 80a5 663d cd34 18bd
00000040: 2b24 243d c87c 88bd d10a 8e3d efaa 0b3e
00000050: ae93 5d3d c5b6 a43c d517 fd3d 9795 9f39
00000060: ffff 49bd 46df d3bd cff9 babd 148c 223c
00000070: 79a7 45bd fec5 103e e14f 48bd 6e70 a33c
00000080: bae8 d8bd 1ebf a8bc 3257 513c ae16 0c3e
00000090: 8959 f6bd 7fcc 0cbb 0333 9d3c 799a 16be
000000a0: 226f fc3c b9e0 3a3e 314d 103e ef44 2d3e
000000b0: 2909 793d cbe4 44bd 78b2 8d3e fb78 893e
000000c0: f138 063e a84a 513d d1c3 003e 753c be3d
000000d0: e8bc 823e e5d8 003e 601b 8bbd 6e60 9a3c
000000e0: 58a0 6e3e d463 853d 82c0 4c3c 32b0 3d3e
000000f0: 1305 913c 6fad 21bd dc8c 0d3e 2de3 813d
00000100: 7938 0bbe 572c 1a3e a747 e03d 03c0 0d3d
00000110: cba9 11bd 77e0 363d 3f4b 103c 6444 443d
00000120: 3c67 293e 77da 5a3e 89fd 773d 2a6c 9a3d
00000130: e302 babd d5fd cabd 49ac 39bd fbd6 5f38
00000140: ec6f 073e 54e8 533e d4a7 b33c bf2b 7fbd

fc3.weight f4 [43, 84]
-0.23711115 -0.04729029 0.1445148 -0.036318038 -0.08568501 -0.18239316 -0.35417488 -0.27763283
-0.1557773 0.00915929 0.035304084 -0.049142577 -0.01791761 0.18783568 0.17215642 -0.62564147
-0.026880711 0.044276666 0.114076994 -0.3036516 -0.12085538 -0.005033254 -0.48227012 0.13734405
-0.49686906 -0.085540265 0.07930133 -0.056530286 0.014717359 0.2103404 -0.068411306 -0.17095457
-0.100909635 -0.09989781 -0.23104344 -0.1985056 -0.010007648 0.15583327 -0.14591272 0.11908544
-0.0018926673 -0.0051430548 -0.13239731 -0.1888817 -0.007549289 -0.15290149 -0.21251905 0.13323204
-0.012574092 0.13435423 0.19382747 -0.15207578 -0.13707621 0.039535724 -0.019448625 -0.35407326
-0.119098455 -0.0032442217 -0.089865535 -0.13316542 0.04678014 -0.27696657 0.013193096 -0.105998315
-0.19817667 -0.34218207 0.07472396 -0.08664748 -0.15562023 -0.2344102 0.16015014 -0.011381661
0.061053097 0.1444273 -0.13509001 0.06079713 -0.06065879 -0.023095896 0.09493208 0.04186955
0.005199013 -0.15235433 0.012643169 -0.10812961 -0.26008606 0.043965846 0.015709437 0.04787491
0.12324592 -0.16800937 -0.04961795 0.048285536 -0.15750563 -0.10708593 0.010098256 -0.008140219
0.05125894 -0.11769361 0.051054463 -0.24974649 0.074770294 0.03868818 0.11272066 -0.053980812
-0.10164892 -0.11596325 -0.071873 0.10953888 -0.10136146 -0.03875129 -0.07645364 -0.042244773
-0.04851912 0.091064304 0.028429752 0.080090344 0.0023502347 -0.10905642 -0.36900058 -0.180357
0.009884573 0.07293062 0.023097262 0.03534987 -0.08359281 0.09124359 -0.060315516 0.13105567
0.045064285 -0.033389248 -0.20021257 0.11605205 -0.08308626 0.002305341 -0.066814885 -0.077742025
0.07932694 0.09876413 -0.061842162 -0.27387878 -0.082812525 -0.08642584 -0.2982586 -0.28542745
-0.069645114 0.014737909 0.09075196 0.10103265 -0.06961774 -0.024290565 0.109225094 0.017201612
-0.18420668 -0.15343703 0.00804162 0.0053064623 -0.24717651 0.02352654 -0.24986571 0.15429787
0.069400914 -0.085577354 -0.0020802226 0.0020020492 0.100632064 -0.32786545 -0.3494678 -0.14389351
-0.029696995 -0.014636862 -0.10684497 0.101241656 0.06406713 -0.10654585 0.10901576 -0.22964191
-0.13295917 0.07609657 -0.030595101 0.017928623 -0.11560839 -0.04075792 -0.21471792 -0.07838356
-0.033256236 0.06349323 0.057415027 -0.08161931 -0.1791983 -0.12320384 -0.19570646 -0.047034796
-0.25064164 -0.037589986 -0.17248066 0.036788847 -0.044002872 0.09205435 -0.02308246 0.11907542
0.024832621 -0.11548676 -0.22469853 -0.35583574 -0.08588781 -0.038412318 0.062991284 -0.29446274
-0.008457665 -0.0014118914 0.02450259 0.106070906 0.057788976 0.07551157 0.011878808 0.09444312
-0.20060287 0.074028425 -0.03614274 0.17186145 0.06594409 0.11620079 0.05716928 0.0045027146
0.097553246 -0.122731715 -0.23189212 -0.07590696 -0.004898601 -0.04290541 0.1613367 -0.09363108
-0.1022933 0.058830544 -0.2466887 0.0411634 -0.2592326 0.13828082 0.04318525 -0.2210754
-0.037902594 -0.02151306 -0.26577675 0.145112 0.034450773 0.08704138 0.052810475 0.085682884
0.096072495 -0.03156472 -0.029346105 0.13167757 0.049846932 -0.1235729 -0.1050127 0.09099993
00000000: 44cd 72be 77b3 41bd b0fb 133e 39c2 14bd
00000010: 9f7b afbd 46c5 3abe 6956 b5be e425 8ebe
00000020: 1684 1fbe d910 163c 049b 103d ba49 49bd
00000030: f4c7 92bc ff57 403e c649 303e 0a2a 20bf
00000040: f034 dcbc 735b 353d 33a1 e93d 3978 9bbe
00000050: 0783 f7bd ffed a4bb 1cec f6be eba3 0c3e
00000060: 9f65 febe bc2f afbd bc68 a23d 4d8c 67bd
00000070: 1421 713c 7963 573e 3a1b 8cbd b70e 2fbe
00000080: b6a9 cebd 3997 ccbd a796 6cbe 0d45 4bbe
00000090: 1ef7 23bc c292 1f3e 256a 15be 11e3 f33d
000000a0: 6013 f8ba 1287 a8bb 2993 07be 346a 41be
000000b0: 0760 f7bb 3592 1cbe 989e 59be fb6d 083e
000000c0: 9003 4ebc 2894 093e b57a 463e c1b9 1bbe
000000d0: b55d 0cbe 36f0 213d b952 9fbc 1749 b5be
000000e0: e4e9 f3bd 029d 54bb 6c0b b8bd 845c 08be
000000f0: 889c 3f3d 90ce 8dbe db27 583c a515 d9bd
00000100: d3ee 4abe 7d32 afbe e008 993d 3c74 b1bd
00000110: e95a 1fbe 3a09 70be 66fe 233e 257a 3abc
00000120: d012 7a3d c0e4 133e 0955 0abe 6906 793d
00000130: 5a75 78bd 9b33 bdbc c06b c23d 687f 2b3d
00000140: 7b5c aa3b c602 1cbe 4b25 4f3c 0f73 ddbd
00000150: 002a 85be 8815 343d 14b1 803c 7b18 443d
00000160: 5b68 fc3d a60a 2cbe 313c 4bbd 0ec7 453d
00000170: 2849 21be de4f dbbd 2873 253c 8e5e 05bc
00000180: e5f4 513d 5909 f1bd 7c1e 513d 8bbd 7fbe
00000190: 2b21 993d 7f77 1e3d 17da e63d fc1a 5dbd
000001a0: 4f2d d0bd 247e edbd 2732 93bd ec55 e03d
000001b0: 9996 cfbd acb9 1ebd ba93 9cbd db08 2dbd
000001c0: fcbb 46bd ec7f ba3d 83e5 e83c 6806 a43d
000001d0: 6506 1a3b f958 dfbd a5ed bcbe 81af 38be
000001e0: e7f2 213c a65c 953d 7836 bd3c 06cb 103d
000001f0: b532 abbd ebdd ba3d 670d 77bd 7533 063e
00000200: 5495 383d 2ac3 08bd 8604 4dbe b2ac ed3d
00000210: 2129 aabd 3415 173b 3ed6 88bd 3637 9fbd
00000220: 2a76 a23d d944 ca3d 354e 7dbd d739 8cbe
00000230: 9d99 a9bd 0800 b1bd 5ab5 98be 8c23 92be
00000240: 19a2 8ebd 4577 713c 2adc b93d 35ea ce3d
00000250: bf93 8ebd 02fd c6bc 68b1 df3d 65ea 8c3c
00000260: ada0 3cbe 991e 1dbe 00c1 033c d5e1 ad3b
00000270: d71b 7dbe bbba c03c ccdc 7fbe 4300 1e3e
00000280: 1122 8e3d 2e43 afbd 5854 08bb d034 033b
00000290: 2f18 ce3d fbdd a7be 72ed b2be d258 13be
000002a0: 1d47 f3bc 73cf 6fbc 89d1 dabd c957 cf3d
000002b0: a135 833d b634 dabd a843 df3d 4027 6bbe
000002c0: 7326 08be 85d8 9b3d 94a2 fabc 0cdf 923c
000002d0: 17c4 ecbd c7f1 26bd 04df 5bbe 8f87 a0bd
000002e0: b137 08bd bd08 823d 052c 6b3d 0628 a7bd
000002f0: c27f 37be 4b52 fcbd 4667 48be 8fa7 40bd
00000300: 1a54 80be f5f7 19bd c59e 30be e7af 163d
00000310: 5b3c 34bd fe86 bc3d 6d17 bdbc d0dd f33d
00000320: c86d cb3c 5384 ecbd 5f17 66be 1a30 b6be
00000330: f3e5 afbd 3c56 1dbd 9301 813d d2c3 96be
00000340: 0592 0abc 370f b9ba a8b9 c83c b43b d93d
00000350: 22b4 6c3d cfa5 9a3d 559f 423c 656b c13d
00000360: d76a 4dbe 379c 973d 690a 14bd 73fc 2f3e
00000370: b20d 873d aefa ed3d 562a 6a3d 828b 933b
00000380: ffc9 c73d c45a fbbd 2175 6dbe 1c75 9bbd
00000390: 7284 a0bb 95bd 2fbd 7335 253e a7c1 bfbd
000003a0: 267f d1bd 4cf8 703d f69b 7cbe f49a 283d
000003b0: 23ba 84be 7d99 0d3e 04e3 303d 9761 62be
000003c0: c03f 1bbd 283c b0bc e413 88be 3d98 143e
000003d0: 411c 0d3d c042 b23d cc4f 583d 827a af3d
000003e0: a8c1 c43d 024a 01bd 3e67 f0bc 7cd6 063e
000003f0: 4c2c 4c3d ca13 fdbd e610 d7bd 2c5e ba3d

fc3.bias f4 [43]
0.056066196 0.14832826 0.021494897 0.07187551 0.07073969 -0.08772942 -0.11689613 0.061098535
0.011478065 -0.08233569 -0.09548954 -0.069322824 -0.04722072 -0.03386096 -0.009557877 0.012655722
-0.13879888 -0.11155469 0.18811822 -0.0022283802 -0.001341616 0.021226995 -0.18520819 -0.10526449
0.03763576 -0.030462552 -0.11976657 0.0003049756 0.025810346 0.07649222 0.038759626 0.17275123
0.26539326 -0.03400959 -0.17856973 0.13511428 0.07143741 -0.11656775 0.08786009 -0.2221704
0.06530366 -0.21476741 -0.0061333184
00000000: aba5 653d 5de3 173e 1116 b03c 7833 933d
00000010: f8df 903d 7bab b3bd 3d67 efbd 7542 7a3d
00000020: 7e0e 3c3c 9d9f a8bd 0590 c3bd 20f9 8dbd
00000030: 846a 41bd cab1 0abd a498 1cbc f259 4f3c
00000040: 4b21 0ebe c976 e4bd 10a2 403e 040a 12bb
00000050: 2ad9 afba 3ce4 ad3c 37a7 3dbe e994 d7bd
00000060: f427 1a3d 9a8c f9bc 2d48 f5bd 22e5 9f39
00000070: 3870 d33c f4a7 9c3d 6ac2 1e3d b3e5 303e
00000080: a0e1 873e a44d 0bbd fcda 36be 665b 0a3e
00000090: c74d 923d 13bb eebd feef b33d a380 63be
000000a0: edbd 853d fdeb 5bbe 01fa c8bb
